…
<!--                             outputs = up_size_model(down_size_model$outputs)) -->
<!-- ``` -->

<!-- ```{r, eval = TRUE,echo = FALSE, results = TRUE} -->
<!-- cat(' -->
<!-- summary(VAE) -->
<!-- Model: "model_3" -->
<!-- __________________________________________________________________________________________ -->
<!--  Layer (type)                           Output Shape                        Param #        -->
<!-- ========================================================================================== -->
<!--  input_1 (InputLayer)                   [(None, 80, 80, 3)]                 0              -->
<!--  conv2d_14 (Conv2D)                     (None, 76, 76, 32)                  2432           -->
<!--  conv2d_15 (Conv2D)                     (None, 36, 36, 32)                  25632          -->
<!--  conv2d_16 (Conv2D)                     (None, 32, 32, 64)                  51264          -->
<!--  conv2d_17 (Conv2D)                     (None, 14, 14, 64)                  102464         -->
<!--  conv2d_18 (Conv2D)                     (None, 8, 8, 128)                   401536         -->
<!--  flatten_2 (Flatten)                    (None, 8192)                        0              -->
<!--  dense_10 (Dense)                       (None, 65)                          532545         -->
<!--  multivariate_normal_tri_l (Multivariat  ((None, 10),                       0              -->
<!--  eNormalTriL)                            (None, 10))                                       -->
<!--  sequential_7 (Sequential)              (None, 80, 80, 3)                   1278464        -->
<!-- ========================================================================================== -->
<!-- Total params: 2,394,337 -->
<!-- Trainable params: 2,394,337 -->
<!-- Non-trainable params: 0 -->
<!-- __________________________________________________________________________________________     -->
<!--     ') -->
<!-- ``` -->

<!-- Compile and train model: -->

<!-- ``` r -->
<!-- be = function(true, pred){ -->
…
