…
<!--   return(discriminator) -->
<!-- } -->

<!-- discriminator = get_discriminator() -->
<!-- discriminator -->
<!-- discriminator(generator(tf$random$normal(c(1L, 100L)))) -->
<!-- ``` -->

<!-- ```{r} -->
<!-- cat(' -->
<!-- Model: "sequential_13" -->
<!-- __________________________________________________________________________________________ -->
<!--  Layer (type)                           Output Shape                        Param #        -->
<!-- ========================================================================================== -->
<!--  conv2d_21 (Conv2D)                     (None, 40, 40, 64)                  4864           -->
<!--  leaky_re_lu_14 (LeakyReLU)             (None, 40, 40, 64)                  0              -->
<!--  dropout_6 (Dropout)                    (None, 40, 40, 64)                  0              -->
<!--  conv2d_20 (Conv2D)                     (None, 20, 20, 128)                 204928         -->
<!--  leaky_re_lu_13 (LeakyReLU)             (None, 20, 20, 128)                 0              -->
<!--  dropout_5 (Dropout)                    (None, 20, 20, 128)                 0              -->
<!--  conv2d_19 (Conv2D)                     (None, 10, 10, 256)                 295168         -->
<!--  leaky_re_lu_12 (LeakyReLU)             (None, 10, 10, 256)                 0              -->
<!--  dropout_4 (Dropout)                    (None, 10, 10, 256)                 0              -->
<!--  flatten_3 (Flatten)                    (None, 25600)                       0              -->
<!--  dense_25 (Dense)                       (None, 1)                           25601          -->
<!-- ========================================================================================== -->
<!-- Total params: 530,561 -->
<!-- Trainable params: 530,561 -->
<!-- Non-trainable params: 0 -->
<!-- __________________________________________________________________________________________ -->

<!-- tf.Tensor([[0.49996078]], shape=(1, 1), dtype=float32)     -->
<!--     ') -->
<!-- ``` -->
…
