…
n layer_conv_2d(filters = 16L, kernel_size = c(3L, 3L), activation = \"relu\") %>%\n layer_max_pooling_2d() %>%\n layer_flatten() %>%\n layer_dense(100L, activation = \"relu\") %>%\n layer_dense(10L, activation = \"softmax\")\nsummary(model)\n```\n\n::: {.cell-output .cell-output-stdout}\n```\nModel: \"sequential\"\n________________________________________________________________________________\n Layer (type)                       Output Shape                    Param #     \n================================================================================\n conv2d_1 (Conv2D)                  (None, 27, 27, 16)              80          \n max_pooling2d_1 (MaxPooling2D)     (None, 13, 13, 16)              0           \n conv2d (Conv2D)                    (None, 11, 11, 16)              2320        \n max_pooling2d (MaxPooling2D)       (None, 5, 5, 16)                0           \n flatten (Flatten)                  (None, 400)                     0           \n dense_1 (Dense)                    (None, 100)                     40100       \n dense (Dense)                      (None, 10)                      1010        \n================================================================================\nTotal params: 43,510\nTrainable params: 43,510\nNon-trainable params: 0\n________________________________________________________________________________\n```\n:::\n:::\n\n\n## Torch\n\nPrepare/download data:\n\n\n::: {.cell}\n\n```{.r .cell-code}\nlibrary(torch)\nlibrary(torchvision)\ntorch_manual_seed(321
…
