…
E = tf$keras$models$Model(inputs = down_size_model$inputs, \n                            outputs = up_size_model(down_size_model$outputs))\nsummary(VAE)\n#> Model: \"model_3\"\n#> __________________________________________________________________________________________\n#>  Layer (type)                           Output Shape                        Param #       \n#> ==========================================================================================\n#>  input_1 (InputLayer)                   [(None, 80, 80, 3)]                 0             \n#>  conv2d_14 (Conv2D)                     (None, 76, 76, 32)                  2432          \n#>  conv2d_15 (Conv2D)                     (None, 36, 36, 32)                  25632         \n#>  conv2d_16 (Conv2D)                     (None, 32, 32, 64)                  51264         \n#>  conv2d_17 (Conv2D)                     (None, 14, 14, 64)                  102464        \n#>  conv2d_18 (Conv2D)                     (None, 8, 8, 128)                   401536        \n#>  flatten_2 (Flatten)                    (None, 8192)                        0             \n#>  dense_10 (Dense)                       (None, 65)                          532545        \n#>  multivariate_normal_tri_l (Multivariat  ((None, 10),                       0             \n#>  eNormalTriL)                            (None, 10))                                      \n#>  sequential_7 (Sequential)              (None, 80, 80, 3)                   1278464       \n#> ==========================================================================================\n#> Total params: 2,394,337\n#> Trainable params: 2,394,337\n#> Non-trainable params: 0\n#> __________________________________________________________________________________________\n```\n\nCompile and train model:\n\n``` r\nbe = function(true, pred){\n  return(tf$losses$binary_crossentropy(true
…
