…
its = 64L, activation = \"relu\") %>%\n  layer_dense(units = 2L, activation = \"sigmoid\")\n\nmodel = keras_model(\n  inputs = c(input1, input2),\n  outputs = c(modelMain)  # Use the whole modelMain (resp. its output) as output.\n)\n\nsummary(model)\n```\n\n::: {.cell-output .cell-output-stdout}\n```\nModel: \"functional_3\"\n┏━━━━━━━━━━━━━━━━━━━━━━━┳━━━━━━━━━━━━━━━━━━━┳━━━━━━━━━━━━━┳━━━━━━━━━━━━━━━━━━━━┓\n┃ Layer (type)          ┃ Output Shape      ┃     Param # ┃ Connected to       ┃\n┡━━━━━━━━━━━━━━━━━━━━━━━╇━━━━━━━━━━━━━━━━━━━╇━━━━━━━━━━━━━╇━━━━━━━━━━━━━━━━━━━━┩\n│ input_layer_1         │ (None, 50)        │           0 │ -                  │\n│ (InputLayer)          │                   │             │                    │\n├───────────────────────┼───────────────────┼─────────────┼────────────────────┤\n│ dropout_2 (Dropout)   │ (None, 50)        │           0 │ input_layer_1[0][… │\n├───────────────────────┼───────────────────┼─────────────┼────────────────────┤\n│ dense_3 (Dense)       │ (None, 64)        │       3,264 │ dropout_2[0][0]    │\n├───────────────────────┼───────────────────┼─────────────┼────────────────────┤\n│ embedding (Embedding) │ (None, 50, 64)    │       3,200 │ input_layer_1[0][… │\n├───────────────────────┼───────────────────┼─────────────┼────────────────────┤\n│ dropout_3 (Dropout)   │ (None, 64)        │           0 │ dense_3[0][0]      │\n├───────────────────────┼───────────────────┼─────────────┼────────────────────┤\n│ lstm_1 (LSTM)         │ (None, 64)        │      33,024 │ embedding[0][0]    │\n├───────────────────────┼───────────────────┼─────────────┼────────────────────┤\n│ dense_4 (Dense)       │ (None, 64)        │       4,160 │ dropout_3[0][0]    │\n├───────────────────────┼───────────────────┼─────────────┼────────────────────┤\n│ input_layer_2         │ (None, 10)        │           0 │ -                  │\n│ (InputLayer)          │                   │             │                    │\n├───────────────────────┼───────────────────┼─────────────┼────────────────────┤\n│ dropout_1 (Dropout)   │ (None, 64)        │           0 │ lstm_1[0][0]       │\n├───────────────────────┼───────────────────┼─────────────┼────────────────────┤\n│ dense_5 (Dense)       │ (None, 64)        │       4,160 │ dense_4[0][0]      │\n├───────────────────────┼───────────────────┼─────────────┼────────────────────┤\n│ dropout (Dropout)     │ (None, 10)        │           0 │ input_layer_2[0][… │\n├───────────────────────┼───────────────────┼─────────────┼────────────────────┤\n│ dense_2 (Dense)       │ (None, 2)         │         130 │ dropout_1[0][0]    │\n├───────────────────────┼───────────────────┼─────────────┼────────────────────┤\n│ dense_6 (Dense)       │ (None, 5)         │         325 │ dense_5[0][0]      │\n├───────────────────────┼───────────────────┼─────────────┼────────────────────┤\n│ dense_1 (Dense)       │ (None, 10)        │         110 │ dropout[0][0]      │\n├───────────────────────┼───────────────────┼─────────────┼────────────────────┤\n│ concatenate           │ (None, 17)        │           0 │ dense_2[0][0],     │\n│ (Concatenate)         │                   │             │ dense_6[0][0],     │\n│                       │                   │             │ dense_1[0][0]      │\n├───────────────────────┼───────────────────┼─────────────┼────────────────────┤\n│ dropout_4 (Dropout)   │ (None, 17)        │           0 │ concatenate[0][0]  │\n├───────────────────────┼───────────────────┼─────────────┼────────────────────┤\n│ dense_7 (Dense)       │ (None, 64)        │       1,152 │ dropout_4[0][0]    │\n├───────────────────────┼───────────────────┼─────────────┼────────────────────┤\n│ dropout_5 (Dropout)   │ (None, 64)        │           0 │ dense_7[0][0]      │\n├───────────────────────┼───────────────────┼─────────────┼────────────────────┤\n│ dense_8 (Dense)       │ (None, 64)        │       4,160 │ dropout_5[0][0]    │\n├───────────────────────┼───────────────────┼─────────────┼────────────────────┤\n│ dense_9 (Dense)       │ (None, 2)         │         130 │ dense_8[0][0]      │\n└───────────────────────┴───────────────────┴─────────────┴────────────────────┘\n Total params: 53,815 (210.21 KB)\n Trainable params: 53,815 (210.21 KB)\n Non-trainable params: 0 (0.00 B)\n```\n:::\n\n```{.r .cell-code}\n# model %>% plot_model()\n```\n:::\n\n\n## Torch\n\n\n::: {.cell}\n\n```{.r .cell-code}\nlibrary(torch)\n\nmodel_torch = nn_module(\n  initialize = func
…
