…
 = \"sigmoid\")\n\nmodel = keras_model(\n  inputs = c(input1, input2),\n  outputs = c(modelMain)  # Use the whole modelMain (resp. its output) as output.\n)\n\nsummary(model)\n```\n\n::: {.cell-output .cell-output-stdout}\n```\nModel: \"model\"\n________________________________________________________________________________\n Layer (type)             Output Shape      Param #  Connected to               \n================================================================================\n input_1 (InputLayer)     [(None, 50)]      0        []                         \n dropout_3 (Dropout)      (None, 50)        0        ['input_1[0][0]']          \n dense_5 (Dense)          (None, 64)        3264     ['dropout_3[0][0]']        \n embedding (Embedding)    (None, 50, 64)    3200     ['input_1[0][0]']          \n dropout_2 (Dropout)      (None, 64)        0        ['dense_5[0][0]']          \n lstm (LSTM)              (None, 64)        33024    ['embedding[0][0]']        \n dense_4 (Dense)          (None, 64)        4160     ['dropout_2[0][0]']        \n input_2 (InputLayer)     [(None, 10)]      0        []                         \n dropout_1 (Dropout)      (None, 64)        0        ['lstm[0][0]']             \n dense_3 (Dense)          (None, 64)        4160     ['dense_4[0][0]']          \n dropout (Dropout)        (None, 10)        0        ['input_2[0][0]']          \n dense_1 (Dense)          (None, 2)         130      ['dropout_1[0][0]']        \n dense_2 (Dense)          (None, 5)         325      ['dense_3[0][0]']          \n dense (Dense)            (None, 10)        110      ['dropout[0][0]']          \n concatenate (Concatenate  (None, 17)       0        ['dense_1[0][0]',          \n )                                                    'dense_2[0][0]',          \n                                                      'dense[0][0]']            \n dropout_5 (Dropout)      (None, 17)        0        ['concatenate[0][0]']      \n dense_8 (Dense)          (None, 64)        1152     ['dropout_5[0][0]']        \n dropout_4 (Dropout)      (None, 64)        0        ['dense_8[0][0]']          \n dense_7 (Dense)          (None, 64)        4160     ['dropout_4[0][0]']        \n dense_6 (Dense)          (None, 2)         130      ['dense_7[0][0]']          \n================================================================================\nTotal params: 53,815\nTrainable params: 53,815\nNon-trainable params: 0\n________________________________________________________________________________\n```\n:::\n\n```{.r .cell-code}\n# model %>% plot_model()\n```\n:::\n\n\n## Torch\n\n\n::: {.cell}\n\n```{.r .cell-code}\nlibrary
…
