…
&gt;%\n layer_max_pooling_2d() %&gt;%\n layer_conv_2d(filters = 16L, kernel_size = c(3L, 3L), activation = \"relu\") %&gt;%\n layer_max_pooling_2d() %&gt;%\n layer_flatten() %&gt;%\n layer_dense(100L, activation = \"relu\") %&gt;%\n layer_dense(10L, activation = \"softmax\")\nsummary(model)\n\nModel: \"sequential\"\n________________________________________________________________________________\n Layer (type)                       Output Shape                    Param #     \n================================================================================\n conv2d_1 (Conv2D)                  (None, 27, 27, 16)              80          \n max_pooling2d_1 (MaxPooling2D)     (None, 13, 13, 16)              0           \n conv2d (Conv2D)                    (None, 11, 11, 16)              2320        \n max_pooling2d (MaxPooling2D)       (None, 5, 5, 16)                0           \n flatten (Flatten)                  (None, 400)                     0           \n dense_1 (Dense)                    (None, 100)                     40100       \n dense (Dense)                      (None, 10)                      1010        \n================================================================================\nTotal params: 43,510\nTrainable params: 43,510\nNon-trainable params: 0\n________________________________________________________________________________\n\n\n\n\nPrepare/download data:\n\nlibrary(torch)\nlibrary(torchvision)\ntorch_manual_seed(321L)\nset.seed(123)\n\ntrain_ds = mnist_dataset(\n  \".\",\n  
…
lu\") %&gt;%\n  layer_dense(units = 2L, activation = \"sigmoid\")\n\nmodel = keras_model(\n  inputs = c(input1, input2),\n  outputs = c(modelMain)  # Use the whole modelMain (resp. its output) as output.\n)\n\nsummary(model)\n\nModel: \"model\"\n________________________________________________________________________________\n Layer (type)             Output Shape      Param #  Connected to               \n================================================================================\n input_1 (InputLayer)     [(None, 50)]      0        []                         \n dropout_3 (Dropout)      (None, 50)        0        ['input_1[0][0]']          \n dense_5 (Dense)          (None, 64)        3264     ['dropout_3[0][0]']        \n embedding (Embedding)    (None, 50, 64)    3200     ['input_1[0][0]']          \n dropout_2 (Dropout)      (None, 64)        0        ['dense_5[0][0]']          \n lstm (LSTM)              (None, 64)        33024    ['embedding[0][0]']        \n dense_4 (Dense)          (None, 64)        4160     ['dropout_2[0][0]']        \n input_2 (InputLayer)     [(None, 10)]      0        []                         \n dropout_1 (Dropout)      (None, 64)        0        ['lstm[0][0]']             \n dense_3 (Dense)          (None, 64)        4160     ['dense_4[0][0]']          \n dropout (Dropout)        (None, 10)        0        ['input_2[0][0]']          \n dense_1 (Dense)          (None, 2)         130      ['dropout_1[0][0]']        \n dense_2 (Dense)          (None, 5)         325      ['dense_3[0][0]']          \n dense (Dense)            (None, 10)        110      ['dropout[0][0]']          \n concatenate (Concatenate  (None, 17)       0        ['dense_1[0][0]',          \n )                                                    'dense_2[0][0]',          \n                                                      'dense[0][0]']            \n dropout_5 (Dropout)      (None, 17)        0        ['concatenate[0][0]']      \n dense_8 (Dense)          (None, 64)        1152     ['dropout_5[0][0]']        \n dropout_4 (Dropout)      (None, 64)        0        ['dense_8[0][0]']          \n dense_7 (Dense)          (None, 64)        4160     ['dropout_4[0][0]']        \n dense_6 (Dense)          (None, 2)         130      ['dense_7[0][0]']          \n================================================================================\nTotal params: 53,815\nTrainable params: 53,815\nNon-trainable params: 0\n________________________________________________________________________________\n\n# model %&gt;% plot_model()\n\n\n\n\nlibrary(torch)\n\nmodel_torch = nn_module(\n  initialize = function(type, inputDimension1
…
s$Model(inputs = down_size_model$inputs, \n                            outputs = up_size_model(down_size_model$outputs))\nsummary(VAE)\n#&gt; Model: \"model_3\"\n#&gt; __________________________________________________________________________________________\n#&gt;  Layer (type)                           Output Shape                        Param #       \n#&gt; ==========================================================================================\n#&gt;  input_1 (InputLayer)                   [(None, 80, 80, 3)]                 0             \n#&gt;  conv2d_14 (Conv2D)                     (None, 76, 76, 32)                  2432          \n#&gt;  conv2d_15 (Conv2D)                     (None, 36, 36, 32)                  25632         \n#&gt;  conv2d_16 (Conv2D)                     (None, 32, 32, 64)                  51264         \n#&gt;  conv2d_17 (Conv2D)                     (None, 14, 14, 64)                  102464        \n#&gt;  conv2d_18 (Conv2D)                     (None, 8, 8, 128)                   401536        \n#&gt;  flatten_2 (Flatten)                    (None, 8192)                        0             \n#&gt;  dense_10 (Dense)                       (None, 65)                          532545        \n#&gt;  multivariate_normal_tri_l (Multivariat  ((None, 10),                       0             \n#&gt;  eNormalTriL)                            (None, 10))                                      \n#&gt;  sequential_7 (Sequential)              (None, 80, 80, 3)                   1278464       \n#&gt; ==========================================================================================\n#&gt; Total params: 2,394,337\n#&gt; Trainable params: 2,394,337\n#&gt; Non-trainable params: 0\n#&gt; __________________________________________________________________________________________\nCompile and train model:\nbe = function(true, pred){\n  return(tf$losses$binary_crossentropy(true,
…
ivation_leaky_relu() %&gt;% \n    layer_dropout(0.3) %&gt;% \n    layer_flatten() %&gt;% \n    layer_dense(units = 1L, activation = \"sigmoid\")\n  return(discriminator)\n}\n\ndiscriminator = get_discriminator()\ndiscriminator\n#&gt; Model: \"sequential_13\"\n#&gt; __________________________________________________________________________________________\n#&gt;  Layer (type)                           Output Shape                        Param #       \n#&gt; ==========================================================================================\n#&gt;  conv2d_21 (Conv2D)                     (None, 40, 40, 64)                  4864          \n#&gt;  leaky_re_lu_14 (LeakyReLU)             (None, 40, 40, 64)                  0             \n#&gt;  dropout_6 (Dropout)                    (None, 40, 40, 64)                  0             \n#&gt;  conv2d_20 (Conv2D)                     (None, 20, 20, 128)                 204928        \n#&gt;  leaky_re_lu_13 (LeakyReLU)             (None, 20, 20, 128)                 0             \n#&gt;  dropout_5 (Dropout)                    (None, 20, 20, 128)                 0             \n#&gt;  conv2d_19 (Conv2D)                     (None, 10, 10, 256)                 295168        \n#&gt;  leaky_re_lu_12 (LeakyReLU)             (None, 10, 10, 256)                 0             \n#&gt;  dropout_4 (Dropout)                    (None, 10, 10, 256)                 0             \n#&gt;  flatten_3 (Flatten)                    (None, 25600)                       0             \n#&gt;  dense_25 (Dense)                       (None, 1)                           25601         \n#&gt; ==========================================================================================\n#&gt; Total params: 530,561\n#&gt; Trainable params: 530,561\n#&gt; Non-trainable params: 0\n#&gt; __________________________________________________________________________________________\ndiscriminator(generator(tf$random$normal(c(1L, 100L))))\n#&gt; tf.Tensor([[0.49996078]], shape=(1, 1
…
