…
lu&quot;) %&gt;% layer_dense(units = 2L, activation = &quot;sigmoid&quot;) model = keras_model( inputs = c(input1, input2), outputs = c(modelMain) # Use the whole modelMain (resp. its output) as output. ) summary(model) ## Model: &quot;model&quot; ## _________________________________________________________________________________________________________________ ## Layer (type) Output Shape Param # Connected to ## ================================================================================================================= ## input_1 (InputLayer) [(None, 50)] 0 [] ## ## dropout_3 (Dropout) (None, 50) 0 [&#39;input_1[0][0]&#39;] ## ## dense_5 (Dense) (None, 64) 3264 [&#39;dropout_3[0][0]&#39;] ## ## embedding (Embedding) (None, 50, 64) 3200 [&#39;input_1[0][0]&#39;] ## ## dropout_2 (Dropout) (None, 64) 0 [&#39;dense_5[0][0]&#39;] ## ## lstm (LSTM) (None, 64) 33024 [&#39;embedding[0][0]&#39;] ## ## dense_4 (Dense) (None, 64) 4160 [&#39;dropout_2[0][0]&#39;] ## ## input_2 (InputLayer) [(None, 10)] 0 [] ## ## dropout_1 (Dropout) (None, 64) 0 [&#39;lstm[0][0]&#39;] ## ## dense_3 (Dense) (None, 64) 4160 [&#39;dense_4[0][0]&#39;] ## ## dropout (Dropout) (None, 10) 0 [&#39;input_2[0][0]&#39;] ## ## dense_1 (Dense) (None, 2) 130 [&#39;dropout_1[0][0]&#39;] ## ## dense_2 (Dense) (None, 5) 325 [&#39;dense_3[0][0]&#39;] ## ## dense (Dense) (None, 10) 110 [&#39;dropout[0][0]&#39;] ## ## concatenate (Concatenate) (None, 17) 0 [&#39;dense_1[0][0]&#39;, ## &#39;dense_2[0][0]&#39;, ## &#39;dense[0][0]&#39;] ## ## dropout_5 (Dropout) (None, 17) 0 [&#39;concatenate[0][0]&#39;] ## ## dense_8 (Dense) (None, 64) 1152 [&#39;dropout_5[0][0]&#39;] ## ## dropout_4 (Dropout) (None, 64) 0 [&#39;dense_8[0][0]&#39;] ## ## dense_7 (Dense) (None, 64) 4160 [&#39;dropout_4[0][0]&#39;] ## ## dense_6 (Dense) (None, 2) 130 [&#39;dense_7[0][0]&#39;] ## ## ================================================================================================================= ## Total params: 53,815 ## Trainable params: 53,815 ## Non-trainable params: 0 ## _________________________________________________________________________________________________________________ # model %&gt;% plot_model() 5.1.4 Natural Language Proces
…
ayer_conv_2d(filters = 16L, kernel_size = c(3L, 3L), activation = &quot;relu&quot;) %&gt;% layer_max_pooling_2d() %&gt;% layer_flatten() %&gt;% layer_dense(100L, activation = &quot;relu&quot;) %&gt;% layer_dense(10L, activation = &quot;softmax&quot;) summary(model) ## Model: &quot;sequential_41&quot; ## ____________________________________________________________________________________________________________________ ## Layer (type) Output Shape Param # ## ==================================================================================================================== ## conv2d_1 (Conv2D) (None, 27, 27, 16) 80 ## ## max_pooling2d_1 (MaxPooling2D) (None, 13, 13, 16) 0 ## ## conv2d (Conv2D) (None, 11, 11, 16) 2320 ## ## max_pooling2d (MaxPooling2D) (None, 5, 5, 16) 0 ## ## flatten (Flatten) (None, 400) 0 ## ## dense_152 (Dense) (None, 100) 40100 ## ## dense_151 (Dense) (None, 10) 1010 ## ## ==================================================================================================================== ## Total params: 43,510 ## Trainable params: 43,510 ## Non-trainable params: 0 ## ____________________________________________________________________________________________________________________ We additionally used a pooling layer for downsizing the resulting feature map
…
complete model, we only want to train the last layer. You can check the number of trainable weights via summary(model). model %&gt;% freeze_weights(to = length(model$layers) - 1) summary(model) ## Model: &quot;model_1&quot; ## ____________________________________________________________________________________________________________________ ## Layer (type) Output Shape Param # Connected to ## ==================================================================================================================== ## input_3 (InputLayer) [(None, 32, 32, 3)] 0 [] ## ## zero_padding2d (ZeroPadding2D) (None, 38, 38, 3) 0 [&#39;input_3[0][0]&#39;] ## ## conv1/conv (Conv2D) (None, 16, 16, 64) 9408 [&#39;zero_padding2d[0][0]&#39;] ## ## conv1/bn (BatchNormalization) (None, 16, 16, 64) 256 [&#39;conv1/conv[0][0]&#39;] ## ## conv1/relu (Activation) (None, 16, 16, 64) 0 [&#39;conv1/bn[0][0]&#39;] ## ## zero_padding2d_1 (ZeroPadding2D) (None, 18, 18, 64) 0 [&#39;conv1/relu[0][0]&#39;] ## ## pool1 (MaxPooling2D) (None, 8, 8, 64) 0 [&#39;zero_padding2d_1[0][0]&#39;] ## ## conv2_block1_0_bn (BatchNormalizatio (None, 8, 8, 64) 256 [&#39;pool1[0][0]&#39;] ## n) ## ## conv2_block1_0_relu (Activation) (None, 8, 8, 64) 0 [&#39;conv2_block1_0_bn[0][0]&#39;] ## ## conv2_block1_1_conv (Conv2D) (None, 8, 8, 128) 8192 [&#39;conv2_block1_0_relu[0][0]&#39;] ## ## conv2_block1_1_bn (BatchNormalizatio (None, 8, 8, 128) 512 [&#39;conv2_block1_1_conv[0][0]&#39;] ## n) ## ## conv2_block1_1_relu (Activation) (None, 8, 8, 128) 0 [&#39;conv2_block1_1_bn[0][0]&#39;] ## ## conv2_block1_2_conv (Conv2D) (None, 8, 8, 32) 36864 [&#39;conv2_block1_1_relu[0][0]&#39;] ## ## conv2_block1_concat (Concatenate) (None, 8, 8, 96) 0 [&#39;pool1[0][0]&#39;, ## &#39;conv2_block1_2_conv[0][0]&#39;] ## ## conv2_block2_0_bn (BatchNormalizatio (None, 8, 8, 96) 384 [&#39;conv2_block1_concat[0][0]&#39;] ## n) ## ## conv2_block2_0_relu (Activation) (None, 8, 8, 96) 0 [&#39;conv2_block2_0_bn[0][0]&#39;] ## ## conv2_block2_1_conv (Conv2D) (None, 8, 8, 128) 12288 [&#39;conv2_block2_0_relu[0][0]&#39;] ## ## conv2_block2_1_bn (BatchNormalizatio (None, 8, 8, 128) 512 [&#39;conv2_block2_1_conv[0][0]&#39;] ## n) ## ## conv2_block2_1_relu (Activation) (None, 8, 8, 128) 0 [&#39;conv2_block2_1_bn[0][0]&#39;] ## ## conv2_block2_2_conv (Conv2D) (None, 8, 8, 32) 36864 [&#39;conv2_block2_1_relu[0][0]&#39;] ## ## conv2_block2_concat (Concatenate) (None, 8, 8, 128) 0 [&#39;conv2_block1_concat[0][0]&#39;, ## &#39;conv2_block2_2_conv[0][0]&#39;] ## ## conv2_block3_0_bn (BatchNormalizatio (None, 8, 8, 128) 512 [&#39;conv2_block2_concat[0][0]&#39;] ## n) ## ## conv2_block3_0_relu (Activation) (None, 8, 8, 128) 0 [&#39;conv2_block3_0_bn[0][0]&#39;] ## ## conv2_block3_1_conv (Conv2D) (None, 8, 8, 128) 16384 [&#39;conv2_block3_0_relu[0][0]&#39;] ## ## conv2_block3_1_bn (BatchNormalizatio (None, 8, 8, 128) 512 [&#39;conv2_block3_1_conv[0][0]&#39;] ## n) ## ## conv2_block3_1_relu (Activation) (None, 8, 8, 128) 0 [&#39;conv2_block3_1_bn[0][0]&#39;] ## ## conv2_block3_2_conv (Conv2D) (None, 8, 8, 32) 36864 [&#39;conv2_block3_1_relu[0][0]&#39;] ## ## conv2_block3_concat (Concatenate) (None, 8, 8, 160) 0 [&#39;conv2_block2_concat[0][0]&#39;, ## &#39;conv2_block3_2_conv[0][0]&#39;] ## ## conv2_block4_0_bn (BatchNormalizatio (None, 8, 8, 160) 640 [&#39;conv2_block3_concat[0][0]&#39;] ## n) ## ## conv2_block4_0_relu (Activation) (None, 8, 8, 160) 0 [&#39;conv2_block4_0_bn[0][0]&#39;] ## ## conv2_block4_1_conv (Conv2D) (None, 8, 8, 128) 20480 [&#39;conv2_block4_0_relu[0][0]&#39;] ## ## conv2_block4_1_bn (BatchNormalizatio (None, 8, 8, 128) 512 [&#39;conv2_block4_1_conv[0][0]&#39;] ## n) ## ## conv2_block4_1_relu (Activation) (None, 8, 8, 128) 0 [&#39;conv2_block4_1_bn[0][0]&#39;] ## ## conv2_block4_2_conv (Conv2D) (None, 8, 8, 32) 36864 [&#39;conv2_block4_1_relu[0][0]&#39;] ## ## conv2_block4_concat (Concatenate) (None, 8, 8, 192) 0 [&#39;conv2_block3_concat[0][0]&#39;, ## &#39;conv2_block4_2_conv[0][0]&#39;] ## ## conv2_block5_0_bn (BatchNormalizatio (None, 8, 8, 192) 768 [&#39;conv2_block4_concat[0][0]&#39;] ## n) ## ## conv2_block5_0_relu (Activation) (None, 8, 8, 192) 0 [&#39;conv2_block5_0_bn[0][0]&#39;] ## ## conv2_block5_1_conv (Conv2D) (None, 8, 8, 128) 24576 [&#39;conv2_block5_0_relu[0][0]&#39;] ## ## conv2_block5_1_bn (BatchNormalizatio (None, 8, 8, 128) 512 [&#39;conv2_block5_1_conv[0][0]&#39;] ## n) ## ## conv2_block5_1_relu (Activation) (None, 8, 8, 128) 0 [&#39;conv2_block5_1_bn[0][0]&#39;] ## ## conv2_block5_2_conv (Conv2D) (None, 8, 8, 32) 36864 [&#39;conv2_block5_1_relu[0][0]&#39;] ## ## conv2_block5_concat (Concatenate) (None, 8, 8, 224) 0 [&#39;conv2_block4_concat[0][0]&#39;, ## &#39;conv2_block5_2_conv[0][0]&#39;] ## ## conv2_block6_0_bn (BatchNormalizatio (None, 8, 8, 224) 896 [&#39;conv2_block5_concat[0][0]&#39;] ## n) ## ## conv2_block6_0_relu (Activation) (None, 8, 8, 224) 0 [&#39;conv2_block6_0_bn[0][0]&#39;] ## ## conv2_block6_1_conv (Conv2D) (None, 8, 8, 128) 28672 [&#39;conv2_block6_0_relu[0][0]&#39;] ## ## conv2_block6_1_bn (BatchNormalizatio (None, 8, 8, 128) 512 [&#39;conv2_block6_1_conv[0][0]&#39;] ## n) ## ## conv2_block6_1_relu (Activation) (None, 8, 8, 128) 0 [&#39;conv2_block6_1_bn[0][0]&#39;] ## ## conv2_block6_2_conv (Conv2D) (None, 8, 8, 32) 36864 [&#39;conv2_block6_1_relu[0][0]&#39;] ## ## conv2_block6_concat (Concatenate) (None, 8, 8, 256) 0 [&#39;conv2_block5_concat[0][0]&#39;, ## &#39;conv2_block6_2_conv[0][0]&#39;] ## ## pool2_bn (BatchNormalization) (None, 8, 8, 256) 1024 [&#39;conv2_block6_concat[0][0]&#39;] ## ## pool2_relu (Activation) (None, 8, 8, 256) 0 [&#39;pool2_bn[0][0]&#39;] ## ## pool2_conv (Conv2D) (None, 8, 8, 128) 32768 [&#39;pool2_relu[0][0]&#39;] ## ## pool2_pool (AveragePooling2D) (None, 4, 4, 128) 0 [&#39;pool2_conv[0][0]&#39;] ## ## conv3_block1_0_bn (BatchNormalizatio (None, 4, 4, 128) 512 [&#39;pool2_pool[0][0]&#39;] ## n) ## ## conv3_block1_0_relu (Activation) (None, 4, 4, 128) 0 [&#39;conv3_block1_0_bn[0][0]&#39;] ## ## conv3_block1_1_conv (Conv2D) (None, 4, 4, 128) 16384 [&#39;conv3_block1_0_relu[0][0]&#39;] ## ## conv3_block1_1_bn (BatchNormalizatio (None, 4, 4, 128) 512 [&#39;conv3_block1_1_conv[0][0]&#39;] ## n) ## ## conv3_block1_1_relu (Activation) (None, 4, 4, 128) 0 [&#39;conv3_block1_1_bn[0][0]&#39;] ## ## conv3_block1_2_conv (Conv2D) (None, 4, 4, 32) 36864 [&#39;conv3_block1_1_relu[0][0]&#39;] ## ## conv3_block1_concat (Concatenate) (None, 4, 4, 160) 0 [&#39;pool2_pool[0][0]&#39;, ## &#39;conv3_block1_2_conv[0][0]&#39;] ## ## conv3_block2_0_bn (BatchNormalizatio (None, 4, 4, 160) 640 [&#39;conv3_block1_concat[0][0]&#39;] ## n) ## ## conv3_block2_0_relu (Activation) (None, 4, 4, 160) 0 [&#39;conv3_block2_0_bn[0][0]&#39;] ## ## conv3_block2_1_conv (Conv2D) (None, 4, 4, 128) 20480 [&#39;conv3_block2_0_relu[0][0]&#39;] ## ## conv3_block2_1_bn (BatchNormalizatio (None, 4, 4, 128) 512 [&#39;conv3_block2_1_conv[0][0]&#39;] ## n) ## ## conv3_block2_1_relu (Activation) (None, 4, 4, 128) 0 [&#39;conv3_block2_1_bn[0][0]&#39;] ## ## conv3_block2_2_conv (Conv2D) (None, 4, 4, 32) 36864 [&#39;conv3_block2_1_relu[0][0]&#39;] ## ## conv3_block2_concat (Concatenate) (None, 4, 4, 192) 0 [&#39;conv3_block1_concat[0][0]&#39;, ## &#39;conv3_block2_2_conv[0][0]&#39;] ## ## conv3_block3_0_bn (BatchNormalizatio (None, 4, 4, 192) 768 [&#39;conv3_block2_concat[0][0]&#39;] ## n) ## ## conv3_block3_0_relu (Activation) (None, 4, 4, 192) 0 [&#39;conv3_block3_0_bn[0][0]&#39;] ## ## conv3_block3_1_conv (Conv2D) (None, 4, 4, 128) 24576 [&#39;conv3_block3_0_relu[0][0]&#39;] ## ## conv3_block3_1_bn (BatchNormalizatio (None, 4, 4, 128) 512 [&#39;conv3_block3_1_conv[0][0]&#39;] ## n) ## ## conv3_block3_1_relu (Activation) (None, 4, 4, 128) 0 [&#39;conv3_block3_1_bn[0][0]&#39;] ## ## conv3_block3_2_conv (Conv2D) (None, 4, 4, 32) 36864 [&#39;conv3_block3_1_relu[0][0]&#39;] ## ## conv3_block3_concat (Concatenate) (None, 4, 4, 224) 0 [&#39;conv3_block2_concat[0][0]&#39;, ## &#39;conv3_block3_2_conv[0][0]&#39;] ## ## conv3_block4_0_bn (BatchNormalizatio (None, 4, 4, 224) 896 [&#39;conv3_block3_concat[0][0]&#39;] ## n) ## ## conv3_block4_0_relu (Activation) (None, 4, 4, 224) 0 [&#39;conv3_block4_0_bn[0][0]&#39;] ## ## conv3_block4_1_conv (Conv2D) (None, 4, 4, 128) 28672 [&#39;conv3_block4_0_relu[0][0]&#39;] ## ## conv3_block4_1_bn (BatchNormalizatio (None, 4, 4, 128) 512 [&#39;conv3_block4_1_conv[0][0]&#39;] ## n) ## ## conv3_block4_1_relu (Activation) (None, 4, 4, 128) 0 [&#39;conv3_block4_1_bn[0][0]&#39;] ## ## conv3_block4_2_conv (Conv2D) (None, 4, 4, 32) 36864 [&#39;conv3_block4_1_relu[0][0]&#39;] ## ## conv3_block4_concat (Concatenate) (None, 4, 4, 256) 0 [&#39;conv3_block3_concat[0][0]&#39;, ## &#39;conv3_block4_2_conv[0][0]&#39;] ## ## conv3_block5_0_bn (BatchNormalizatio (None, 4, 4, 256) 1024 [&#39;conv3_block4_concat[0][0]&#39;] ## n) ## ## conv3_block5_0_relu (Activation) (None, 4, 4, 256) 0 [&#39;conv3_block5_0_bn[0][0]&#39;] ## ## conv3_block5_1_conv (Conv2D) (None, 4, 4, 128) 32768 [&#39;conv3_block5_0_relu[0][0]&#39;] ## ## conv3_block5_1_bn (BatchNormalizatio (None, 4, 4, 128) 512 [&#39;conv3_block5_1_conv[0][0]&#39;] ## n) ## ## conv3_block5_1_relu (Activation) (None, 4, 4, 128) 0 [&#39;conv3_block5_1_bn[0][0]&#39;] ## ## conv3_block5_2_conv (Conv2D) (None, 4, 4, 32) 36864 [&#39;conv3_block5_1_relu[0][0]&#39;] ## ## conv3_block5_concat (Concatenate) (None, 4, 4, 288) 0 [&#39;conv3_block4_concat[0][0]&#39;, ## &#39;conv3_block5_2_conv[0][0]&#39;] ## ## conv3_block6_0_bn (BatchNormalizatio (None, 4, 4, 288) 1152 [&#39;conv3_block5_concat[0][0]&#39;] ## n) ## ## conv3_block6_0_relu (Activation) (None, 4, 4, 288) 0 [&#39;conv3_block6_0_bn[0][0]&#39;] ## ## conv3_block6_1_conv (Conv2D) (None, 4, 4, 128) 36864 [&#39;conv3_block6_0_relu[0][0]&#39;] ## ## conv3_block6_1_bn (BatchNormalizatio (None, 4, 4, 128) 512 [&#39;conv3_block6_1_conv[0][0]&#39;] ## n) ## ## conv3_block6_1_relu (Activation) (None, 4, 4, 128) 0 [&#39;conv3_block6_1_bn[0][0]&#39;] ## ## conv3_block6_2_conv (Conv2D) (None, 4, 4, 32) 36864 [&#39;conv3_block6_1_relu[0][0]&#39;] ## ## conv3_block6_concat (Concatenate) (None, 4, 4, 320) 0 [&#39;conv3_block5_concat[0][0]&#39;, ## &#39;conv3_block6_2_conv[0][0]&#39;] ## ## conv3_block7_0_bn (BatchNormalizatio (None, 4, 4, 320) 1280 [&#39;conv3_block6_concat[0][0]&#39;] ## n) ## ## conv3_block7_0_relu (Activation) (None, 4, 4, 320) 0 [&#39;conv3_block7_0_bn[0][0]&#39;] ## ## conv3_block7_1_conv (Conv2D) (None, 4, 4, 128) 40960 [&#39;conv3_block7_0_relu[0][0]&#39;] ## ## conv3_block7_1_bn (BatchNormalizatio (None, 4, 4, 128) 512 [&#39;conv3_block7_1_conv[0][0]&#39;] ## n) ## ## conv3_block7_1_relu (Activation) (None, 4, 4, 128) 0 [&#39;conv3_block7_1_bn[0][0]&#39;] ## ## conv3_block7_2_conv (Conv2D) (None, 4, 4, 32) 36864 [&#39;conv3_block7_1_relu[0][0]&#39;] ## ## conv3_block7_concat (Concatenate) (None, 4, 4, 352) 0 [&#39;conv3_block6_concat[0][0]&#39;, ## &#39;conv3_block7_2_conv[0][0]&#39;] ## ## conv3_block8_0_bn (BatchNormalizatio (None, 4, 4, 352) 1408 [&#39;conv3_block7_concat[0][0]&#39;] ## n) ## ## conv3_block8_0_relu (Activation) (None, 4, 4, 352) 0 [&#39;conv3_block8_0_bn[0][0]&#39;] ## ## conv3_block8_1_conv (Conv2D) (None, 4, 4, 128) 45056 [&#39;conv3_block8_0_relu[0][0]&#39;] ## ## conv3_block8_1_bn (BatchNormalizatio (None, 4, 4, 128) 512 [&#39;conv3_block8_1_conv[0][0]&#39;] ## n) ## ## conv3_block8_1_relu (Activation) (None, 4, 4, 128) 0 [&#39;conv3_block8_1_bn[0][0]&#39;] ## ## conv3_block8_2_conv (Conv2D) (None, 4, 4, 32) 36864 [&#39;conv3_block8_1_relu[0][0]&#39;] ## ## conv3_block8_concat (Concatenate) (None, 4, 4, 384) 0 [&#39;conv3_block7_concat[0][0]&#39;, ## &#39;conv3_block8_2_conv[0][0]&#39;] ## ## conv3_block9_0_bn (BatchNormalizatio (None, 4, 4, 384) 1536 [&#39;conv3_block8_concat[0][0]&#39;] ## n) ## ## conv3_block9_0_relu (Activation) (None, 4, 4, 384) 0 [&#39;conv3_block9_0_bn[0][0]&#39;] ## ## conv3_block9_1_conv (Conv2D) (None, 4, 4, 128) 49152 [&#39;conv3_block9_0_relu[0][0]&#39;] ## ## conv3_block9_1_bn (BatchNormalizatio (None, 4, 4, 128) 512 [&#39;conv3_block9_1_conv[0][0]&#39;] ## n) ## ## conv3_block9_1_relu (Activation) (None, 4, 4, 128) 0 [&#39;conv3_block9_1_bn[0][0]&#39;] ## ## conv3_block9_2_conv (Conv2D) (None, 4, 4, 32) 36864 [&#39;conv3_block9_1_relu[0][0]&#39;] ## ## conv3_block9_concat (Concatenate) (None, 4, 4, 416) 0 [&#39;conv3_block8_concat[0][0]&#39;, ## &#39;conv3_block9_2_conv[0][0]&#39;] ## ## conv3_block10_0_bn (BatchNormalizati (None, 4, 4, 416) 1664 [&#39;conv3_block9_concat[0][0]&#39;] ## on) ## ## conv3_block10_0_relu (Activation) (None, 4, 4, 416) 0 [&#39;conv3_block10_0_bn[0][0]&#39;] ## ## conv3_block10_1_conv (Conv2D) (None, 4, 4, 128) 53248 [&#39;conv3_block10_0_relu[0][0]&#39;] ## ## conv3_block10_1_bn (BatchNormalizati (None, 4, 4, 128) 512 [&#39;conv3_block10_1_conv[0][0]&#39;] ## on) ## ## conv3_block10_1_relu (Activation) (None, 4, 4, 128) 0 [&#39;conv3_block10_1_bn[0][0]&#39;] ## ## conv3_block10_2_conv (Conv2D) (None, 4, 4, 32) 36864 [&#39;conv3_block10_1_relu[0][0]&#39;] ## ## conv3_block10_concat (Concatenate) (None, 4, 4, 448) 0 [&#39;conv3_block9_concat[0][0]&#39;, ## &#39;conv3_block10_2_conv[0][0]&#39;] ## ## conv3_block11_0_bn (BatchNormalizati (None, 4, 4, 448) 1792 [&#39;conv3_block10_concat[0][0]&#39;] ## on) ## ## conv3_block11_0_relu (Activation) (None, 4, 4, 448) 0 [&#39;conv3_block11_0_bn[0][0]&#39;] ## ## conv3_block11_1_conv (Conv2D) (None, 4, 4, 128) 57344 [&#39;conv3_block11_0_relu[0][0]&#39;] ## ## conv3_block11_1_bn (BatchNormalizati (None, 4, 4, 128) 512 [&#39;conv3_block11_1_conv[0][0]&#39;] ## on) ## ## conv3_block11_1_relu (Activation) (None, 4, 4, 128) 0 [&#39;conv3_block11_1_bn[0][0]&#39;] ## ## conv3_block11_2_conv (Conv2D) (None, 4, 4, 32) 36864 [&#39;conv3_block11_1_relu[0][0]&#39;] ## ## conv3_block11_concat (Concatenate) (None, 4, 4, 480) 0 [&#39;conv3_block10_concat[0][0]&#39;, ## &#39;conv3_block11_2_conv[0][0]&#39;] ## ## conv3_block12_0_bn (BatchNormalizati (None, 4, 4, 480) 1920 [&#39;conv3_block11_concat[0][0]&#39;] ## on) ## ## conv3_block12_0_relu (Activation) (None, 4, 4, 480) 0 [&#39;conv3_block12_0_bn[0][0]&#39;] ## ## conv3_block12_1_conv (Conv2D) (None, 4, 4, 128) 61440 [&#39;conv3_block12_0_relu[0][0]&#39;] ## ## conv3_block12_1_bn (BatchNormalizati (None, 4, 4, 128) 512 [&#39;conv3_block12_1_conv[0][0]&#39;] ## on) ## ## conv3_block12_1_relu (Activation) (None, 4, 4, 128) 0 [&#39;conv3_block12_1_bn[0][0]&#39;] ## ## conv3_block12_2_conv (Conv2D) (None, 4, 4, 32) 36864 [&#39;conv3_block12_1_relu[0][0]&#39;] ## ## conv3_block12_concat (Concatenate) (None, 4, 4, 512) 0 [&#39;conv3_block11_concat[0][0]&#39;, ## &#39;conv3_block12_2_conv[0][0]&#39;] ## ## pool3_bn (BatchNormalization) (None, 4, 4, 512) 2048 [&#39;conv3_block12_concat[0][0]&#39;] ## ## pool3_relu (Activation) (None, 4, 4, 512) 0 [&#39;pool3_bn[0][0]&#39;] ## ## pool3_conv (Conv2D) (None, 4, 4, 256) 131072 [&#39;pool3_relu[0][0]&#39;] ## ## pool3_pool (AveragePooling2D) (None, 2, 2, 256) 0 [&#39;pool3_conv[0][0]&#39;] ## ## conv4_block1_0_bn (BatchNormalizatio (None, 2, 2, 256) 1024 [&#39;pool3_pool[0][0]&#39;] ## n) ## ## conv4_block1_0_relu (Activation) (None, 2, 2, 256) 0 [&#39;conv4_block1_0_bn[0][0]&#39;] ## ## conv4_block1_1_conv (Conv2D) (None, 2, 2, 128) 32768 [&#39;conv4_block1_0_relu[0][0]&#39;] ## ## conv4_block1_1_bn (BatchNormalizatio (None, 2, 2, 128) 512 [&#39;conv4_block1_1_conv[0][0]&#39;] ## n) ## ## conv4_block1_1_relu (Activation) (None, 2, 2, 128) 0 [&#39;conv4_block1_1_bn[0][0]&#39;] ## ## conv4_block1_2_conv (Conv2D) (None, 2, 2, 32) 36864 [&#39;conv4_block1_1_relu[0][0]&#39;] ## ## conv4_block1_concat (Concatenate) (None, 2, 2, 288) 0 [&#39;pool3_pool[0][0]&#39;, ## &#39;conv4_block1_2_conv[0][0]&#39;] ## ## conv4_block2_0_bn (BatchNormalizatio (None, 2, 2, 288) 1152 [&#39;conv4_block1_concat[0][0]&#39;] ## n) ## ## conv4_block2_0_relu (Activation) (None, 2, 2, 288) 0 [&#39;conv4_block2_0_bn[0][0]&#39;] ## ## conv4_block2_1_conv (Conv2D) (None, 2, 2, 128) 36864 [&#39;conv4_block2_0_relu[0][0]&#39;] ## ## conv4_block2_1_bn (BatchNormalizatio (None, 2, 2, 128) 512 [&#39;conv4_block2_1_conv[0][0]&#39;] ## n) ## ## conv4_block2_1_relu (Activation) (None, 2, 2, 128) 0 [&#39;conv4_block2_1_bn[0][0]&#39;] ## ## conv4_block2_2_conv (Conv2D) (None, 2, 2, 32) 36864 [&#39;conv4_block2_1_relu[0][0]&#39;] ## ## conv4_block2_concat (Concatenate) (None, 2, 2, 320) 0 [&#39;conv4_block1_concat[0][0]&#39;, ## &#39;conv4_block2_2_conv[0][0]&#39;] ## ## conv4_block3_0_bn (BatchNormalizatio (None, 2, 2, 320) 1280 [&#39;conv4_block2_concat[0][0]&#39;] ## n) ## ## conv4_block3_0_relu (Activation) (None, 2, 2, 320) 0 [&#39;conv4_block3_0_bn[0][0]&#39;] ## ## conv4_block3_1_conv (Conv2D) (None, 2, 2, 128) 40960 [&#39;conv4_block3_0_relu[0][0]&#39;] ## ## conv4_block3_1_bn (BatchNormalizatio (None, 2, 2, 128) 512 [&#39;conv4_block3_1_conv[0][0]&#39;] ## n) ## ## conv4_block3_1_relu (Activation) (None, 2, 2, 128) 0 [&#39;conv4_block3_1_bn[0][0]&#39;] ## ## conv4_block3_2_conv (Conv2D) (None, 2, 2, 32) 36864 [&#39;conv4_block3_1_relu[0][0]&#39;] ## ## conv4_block3_concat (Concatenate) (None, 2, 2, 352) 0 [&#39;conv4_block2_concat[0][0]&#39;, ## &#39;conv4_block3_2_conv[0][0]&#39;] ## ## conv4_block4_0_bn (BatchNormalizatio (None, 2, 2, 352) 1408 [&#39;conv4_block3_concat[0][0]&#39;] ## n) ## ## conv4_block4_0_relu (Activation) (None, 2, 2, 352) 0 [&#39;conv4_block4_0_bn[0][0]&#39;] ## ## conv4_block4_1_conv (Conv2D) (None, 2, 2, 128) 45056 [&#39;conv4_block4_0_relu[0][0]&#39;] ## ## conv4_block4_1_bn (BatchNormalizatio (None, 2, 2, 128) 512 [&#39;conv4_block4_1_conv[0][0]&#39;] ## n) ## ## conv4_block4_1_relu (Activation) (None, 2, 2, 128) 0 [&#39;conv4_block4_1_bn[0][0]&#39;] ## ## conv4_block4_2_conv (Conv2D) (None, 2, 2, 32) 36864 [&#39;conv4_block4_1_relu[0][0]&#39;] ## ## conv4_block4_concat (Concatenate) (None, 2, 2, 384) 0 [&#39;conv4_block3_concat[0][0]&#39;, ## &#39;conv4_block4_2_conv[0][0]&#39;] ## ## conv4_block5_0_bn (BatchNormalizatio (None, 2, 2, 384) 1536 [&#39;conv4_block4_concat[0][0]&#39;] ## n) ## ## conv4_block5_0_relu (Activation) (None, 2, 2, 384) 0 [&#39;conv4_block5_0_bn[0][0]&#39;] ## ## conv4_block5_1_conv (Conv2D) (None, 2, 2, 128) 49152 [&#39;conv4_block5_0_relu[0][0]&#39;] ## ## conv4_block5_1_bn (BatchNormalizatio (None, 2, 2, 128) 512 [&#39;conv4_block5_1_conv[0][0]&#39;] ## n) ## ## conv4_block5_1_relu (Activation) (None, 2, 2, 128) 0 [&#39;conv4_block5_1_bn[0][0]&#39;] ## ## conv4_block5_2_conv (Conv2D) (None, 2, 2, 32) 36864 [&#39;conv4_block5_1_relu[0][0]&#39;] ## ## conv4_block5_concat (Concatenate) (None, 2, 2, 416) 0 [&#39;conv4_block4_concat[0][0]&#39;, ## &#39;conv4_block5_2_conv[0][0]&#39;] ## ## conv4_block6_0_bn (BatchNormalizatio (None, 2, 2, 416) 1664 [&#39;conv4_block5_concat[0][0]&#39;] ## n) ## ## conv4_block6_0_relu (Activation) (None, 2, 2, 416) 0 [&#39;conv4_block6_0_bn[0][0]&#39;] ## ## conv4_block6_1_conv (Conv2D) (None, 2, 2, 128) 53248 [&#39;conv4_block6_0_relu[0][0]&#39;] ## ## conv4_block6_1_bn (BatchNormalizatio (None, 2, 2, 128) 512 [&#39;conv4_block6_1_conv[0][0]&#39;] ## n) ## ## conv4_block6_1_relu (Activation) (None, 2, 2, 128) 0 [&#39;conv4_block6_1_bn[0][0]&#39;] ## ## conv4_block6_2_conv (Conv2D) (None, 2, 2, 32) 36864 [&#39;conv4_block6_1_relu[0][0]&#39;] ## ## conv4_block6_concat (Concatenate) (None, 2, 2, 448) 0 [&#39;conv4_block5_concat[0][0]&#39;, ## &#39;conv4_block6_2_conv[0][0]&#39;] ## ## conv4_block7_0_bn (BatchNormalizatio (None, 2, 2, 448) 1792 [&#39;conv4_block6_concat[0][0]&#39;] ## n) ## ## conv4_block7_0_relu (Activation) (None, 2, 2, 448) 0 [&#39;conv4_block7_0_bn[0][0]&#39;] ## ## conv4_block7_1_conv (Conv2D) (None, 2, 2, 128) 57344 [&#39;conv4_block7_0_relu[0][0]&#39;] ## ## conv4_block7_1_bn (BatchNormalizatio (None, 2, 2, 128) 512 [&#39;conv4_block7_1_conv[0][0]&#39;] ## n) ## ## conv4_block7_1_relu (Activation) (None, 2, 2, 128) 0 [&#39;conv4_block7_1_bn[0][0]&#39;] ## ## conv4_block7_2_conv (Conv2D) (None, 2, 2, 32) 36864 [&#39;conv4_block7_1_relu[0][0]&#39;] ## ## conv4_block7_concat (Concatenate) (None, 2, 2, 480) 0 [&#39;conv4_block6_concat[0][0]&#39;, ## &#39;conv4_block7_2_conv[0][0]&#39;] ## ## conv4_block8_0_bn (BatchNormalizatio (None, 2, 2, 480) 1920 [&#39;conv4_block7_concat[0][0]&#39;] ## n) ## ## conv4_block8_0_relu (Activation) (None, 2, 2, 480) 0 [&#39;conv4_block8_0_bn[0][0]&#39;] ## ## conv4_block8_1_conv (Conv2D) (None, 2, 2, 128) 61440 [&#39;conv4_block8_0_relu[0][0]&#39;] ## ## conv4_block8_1_bn (BatchNormalizatio (None, 2, 2, 128) 512 [&#39;conv4_block8_1_conv[0][0]&#39;] ## n) ## ## conv4_block8_1_relu (Activation) (None, 2, 2, 128) 0 [&#39;conv4_block8_1_bn[0][0]&#39;] ## ## conv4_block8_2_conv (Conv2D) (None, 2, 2, 32) 36864 [&#39;conv4_block8_1_relu[0][0]&#39;] ## ## conv4_block8_concat (Concatenate) (None, 2, 2, 512) 0 [&#39;conv4_block7_concat[0][0]&#39;, ## &#39;conv4_block8_2_conv[0][0]&#39;] ## ## conv4_block9_0_bn (BatchNormalizatio (None, 2, 2, 512) 2048 [&#39;conv4_block8_concat[0][0]&#39;] ## n) ## ## conv4_block9_0_relu (Activation) (None, 2, 2, 512) 0 [&#39;conv4_block9_0_bn[0][0]&#39;] ## ## conv4_block9_1_conv (Conv2D) (None, 2, 2, 128) 65536 [&#39;conv4_block9_0_relu[0][0]&#39;] ## ## conv4_block9_1_bn (BatchNormalizatio (None, 2, 2, 128) 512 [&#39;conv4_block9_1_conv[0][0]&#39;] ## n) ## ## conv4_block9_1_relu (Activation) (None, 2, 2, 128) 0 [&#39;conv4_block9_1_bn[0][0]&#39;] ## ## conv4_block9_2_conv (Conv2D) (None, 2, 2, 32) 36864 [&#39;conv4_block9_1_relu[0][0]&#39;] ## ## conv4_block9_concat (Concatenate) (None, 2, 2, 544) 0 [&#39;conv4_block8_concat[0][0]&#39;, ## &#39;conv4_block9_2_conv[0][0]&#39;] ## ## conv4_block10_0_bn (BatchNormalizati (None, 2, 2, 544) 2176 [&#39;conv4_block9_concat[0][0]&#39;] ## on) ## ## conv4_block10_0_relu (Activation) (None, 2, 2, 544) 0 [&#39;conv4_block10_0_bn[0][0]&#39;] ## ## conv4_block10_1_conv (Conv2D) (None, 2, 2, 128) 69632 [&#39;conv4_block10_0_relu[0][0]&#39;] ## ## conv4_block10_1_bn (BatchNormalizati (None, 2, 2, 128) 512 [&#39;conv4_block10_1_conv[0][0]&#39;] ## on) ## ## conv4_block10_1_relu (Activation) (None, 2, 2, 128) 0 [&#39;conv4_block10_1_bn[0][0]&#39;] ## ## conv4_block10_2_conv (Conv2D) (None, 2, 2, 32) 36864 [&#39;conv4_block10_1_relu[0][0]&#39;] ## ## conv4_block10_concat (Concatenate) (None, 2, 2, 576) 0 [&#39;conv4_block9_concat[0][0]&#39;, ## &#39;conv4_block10_2_conv[0][0]&#39;] ## ## conv4_block11_0_bn (BatchNormalizati (None, 2, 2, 576) 2304 [&#39;conv4_block10_concat[0][0]&#39;] ## on) ## ## conv4_block11_0_relu (Activation) (None, 2, 2, 576) 0 [&#39;conv4_block11_0_bn[0][0]&#39;] ## ## conv4_block11_1_conv (Conv2D) (None, 2, 2, 128) 73728 [&#39;conv4_block11_0_relu[0][0]&#39;] ## ## conv4_block11_1_bn (BatchNormalizati (None, 2, 2, 128) 512 [&#39;conv4_block11_1_conv[0][0]&#39;] ## on) ## ## conv4_block11_1_relu (Activation) (None, 2, 2, 128) 0 [&#39;conv4_block11_1_bn[0][0]&#39;] ## ## conv4_block11_2_conv (Conv2D) (None, 2, 2, 32) 36864 [&#39;conv4_block11_1_relu[0][0]&#39;] ## ## conv4_block11_concat (Concatenate) (None, 2, 2, 608) 0 [&#39;conv4_block10_concat[0][0]&#39;, ## &#39;conv4_block11_2_conv[0][0]&#39;] ## ## conv4_block12_0_bn (BatchNormalizati (None, 2, 2, 608) 2432 [&#39;conv4_block11_concat[0][0]&#39;] ## on) ## ## conv4_block12_0_relu (Activation) (None, 2, 2, 608) 0 [&#39;conv4_block12_0_bn[0][0]&#39;] ## ## conv4_block12_1_conv (Conv2D) (None, 2, 2, 128) 77824 [&#39;conv4_block12_0_relu[0][0]&#39;] ## ## conv4_block12_1_bn (BatchNormalizati (None, 2, 2, 128) 512 [&#39;conv4_block12_1_conv[0][0]&#39;] ## on) ## ## conv4_block12_1_relu (Activation) (None, 2, 2, 128) 0 [&#39;conv4_block12_1_bn[0][0]&#39;] ## ## conv4_block12_2_conv (Conv2D) (None, 2, 2, 32) 36864 [&#39;conv4_block12_1_relu[0][0]&#39;] ## ## conv4_block12_concat (Concatenate) (None, 2, 2, 640) 0 [&#39;conv4_block11_concat[0][0]&#39;, ## &#39;conv4_block12_2_conv[0][0]&#39;] ## ## conv4_block13_0_bn (BatchNormalizati (None, 2, 2, 640) 2560 [&#39;conv4_block12_concat[0][0]&#39;] ## on) ## ## conv4_block13_0_relu (Activation) (None, 2, 2, 640) 0 [&#39;conv4_block13_0_bn[0][0]&#39;] ## ## conv4_block13_1_conv (Conv2D) (None, 2, 2, 128) 81920 [&#39;conv4_block13_0_relu[0][0]&#39;] ## ## conv4_block13_1_bn (BatchNormalizati (None, 2, 2, 128) 512 [&#39;conv4_block13_1_conv[0][0]&#39;] ## on) ## ## conv4_block13_1_relu (Activation) (None, 2, 2, 128) 0 [&#39;conv4_block13_1_bn[0][0]&#39;] ## ## conv4_block13_2_conv (Conv2D) (None, 2, 2, 32) 36864 [&#39;conv4_block13_1_relu[0][0]&#39;] ## ## conv4_block13_concat (Concatenate) (None, 2, 2, 672) 0 [&#39;conv4_block12_concat[0][0]&#39;, ## &#39;conv4_block13_2_conv[0][0]&#39;] ## ## conv4_block14_0_bn (BatchNormalizati (None, 2, 2, 672) 2688 [&#39;conv4_block13_concat[0][0]&#39;] ## on) ## ## conv4_block14_0_relu (Activation) (None, 2, 2, 672) 0 [&#39;conv4_block14_0_bn[0][0]&#39;] ## ## conv4_block14_1_conv (Conv2D) (None, 2, 2, 128) 86016 [&#39;conv4_block14_0_relu[0][0]&#39;] ## ## conv4_block14_1_bn (BatchNormalizati (None, 2, 2, 128) 512 [&#39;conv4_block14_1_conv[0][0]&#39;] ## on) ## ## conv4_block14_1_relu (Activation) (None, 2, 2, 128) 0 [&#39;conv4_block14_1_bn[0][0]&#39;] ## ## conv4_block14_2_conv (Conv2D) (None, 2, 2, 32) 36864 [&#39;conv4_block14_1_relu[0][0]&#39;] ## ## conv4_block14_concat (Concatenate) (None, 2, 2, 704) 0 [&#39;conv4_block13_concat[0][0]&#39;, ## &#39;conv4_block14_2_conv[0][0]&#39;] ## ## conv4_block15_0_bn (BatchNormalizati (None, 2, 2, 704) 2816 [&#39;conv4_block14_concat[0][0]&#39;] ## on) ## ## conv4_block15_0_relu (Activation) (None, 2, 2, 704) 0 [&#39;conv4_block15_0_bn[0][0]&#39;] ## ## conv4_block15_1_conv (Conv2D) (None, 2, 2, 128) 90112 [&#39;conv4_block15_0_relu[0][0]&#39;] ## ## conv4_block15_1_bn (BatchNormalizati (None, 2, 2, 128) 512 [&#39;conv4_block15_1_conv[0][0]&#39;] ## on) ## ## conv4_block15_1_relu (Activation) (None, 2, 2, 128) 0 [&#39;conv4_block15_1_bn[0][0]&#39;] ## ## conv4_block15_2_conv (Conv2D) (None, 2, 2, 32) 36864 [&#39;conv4_block15_1_relu[0][0]&#39;] ## ## conv4_block15_concat (Concatenate) (None, 2, 2, 736) 0 [&#39;conv4_block14_concat[0][0]&#39;, ## &#39;conv4_block15_2_conv[0][0]&#39;] ## ## conv4_block16_0_bn (BatchNormalizati (None, 2, 2, 736) 2944 [&#39;conv4_block15_concat[0][0]&#39;] ## on) ## ## conv4_block16_0_relu (Activation) (None, 2, 2, 736) 0 [&#39;conv4_block16_0_bn[0][0]&#39;] ## ## conv4_block16_1_conv (Conv2D) (None, 2, 2, 128) 94208 [&#39;conv4_block16_0_relu[0][0]&#39;] ## ## conv4_block16_1_bn (BatchNormalizati (None, 2, 2, 128) 512 [&#39;conv4_block16_1_conv[0][0]&#39;] ## on) ## ## conv4_block16_1_relu (Activation) (None, 2, 2, 128) 0 [&#39;conv4_block16_1_bn[0][0]&#39;] ## ## conv4_block16_2_conv (Conv2D) (None, 2, 2, 32) 36864 [&#39;conv4_block16_1_relu[0][0]&#39;] ## ## conv4_block16_concat (Concatenate) (None, 2, 2, 768) 0 [&#39;conv4_block15_concat[0][0]&#39;, ## &#39;conv4_block16_2_conv[0][0]&#39;] ## ## conv4_block17_0_bn (BatchNormalizati (None, 2, 2, 768) 3072 [&#39;conv4_block16_concat[0][0]&#39;] ## on) ## ## conv4_block17_0_relu (Activation) (None, 2, 2, 768) 0 [&#39;conv4_block17_0_bn[0][0]&#39;] ## ## conv4_block17_1_conv (Conv2D) (None, 2, 2, 128) 98304 [&#39;conv4_block17_0_relu[0][0]&#39;] ## ## conv4_block17_1_bn (BatchNormalizati (None, 2, 2, 128) 512 [&#39;conv4_block17_1_conv[0][0]&#39;] ## on) ## ## conv4_block17_1_relu (Activation) (None, 2, 2, 128) 0 [&#39;conv4_block17_1_bn[0][0]&#39;] ## ## conv4_block17_2_conv (Conv2D) (None, 2, 2, 32) 36864 [&#39;conv4_block17_1_relu[0][0]&#39;] ## ## conv4_block17_concat (Concatenate) (None, 2, 2, 800) 0 [&#39;conv4_block16_concat[0][0]&#39;, ## &#39;conv4_block17_2_conv[0][0]&#39;] ## ## conv4_block18_0_bn (BatchNormalizati (None, 2, 2, 800) 3200 [&#39;conv4_block17_concat[0][0]&#39;] ## on) ## ## conv4_block18_0_relu (Activation) (None, 2, 2, 800) 0 [&#39;conv4_block18_0_bn[0][0]&#39;] ## ## conv4_block18_1_conv (Conv2D) (None, 2, 2, 128) 102400 [&#39;conv4_block18_0_relu[0][0]&#39;] ## ## conv4_block18_1_bn (BatchNormalizati (None, 2, 2, 128) 512 [&#39;conv4_block18_1_conv[0][0]&#39;] ## on) ## ## conv4_block18_1_relu (Activation) (None, 2, 2, 128) 0 [&#39;conv4_block18_1_bn[0][0]&#39;] ## ## conv4_block18_2_conv (Conv2D) (None, 2, 2, 32) 36864 [&#39;conv4_block18_1_relu[0][0]&#39;] ## ## conv4_block18_concat (Concatenate) (None, 2, 2, 832) 0 [&#39;conv4_block17_concat[0][0]&#39;, ## &#39;conv4_block18_2_conv[0][0]&#39;] ## ## conv4_block19_0_bn (BatchNormalizati (None, 2, 2, 832) 3328 [&#39;conv4_block18_concat[0][0]&#39;] ## on) ## ## conv4_block19_0_relu (Activation) (None, 2, 2, 832) 0 [&#39;conv4_block19_0_bn[0][0]&#39;] ## ## conv4_block19_1_conv (Conv2D) (None, 2, 2, 128) 106496 [&#39;conv4_block19_0_relu[0][0]&#39;] ## ## conv4_block19_1_bn (BatchNormalizati (None, 2, 2, 128) 512 [&#39;conv4_block19_1_conv[0][0]&#39;] ## on) ## ## conv4_block19_1_relu (Activation) (None, 2, 2, 128) 0 [&#39;conv4_block19_1_bn[0][0]&#39;] ## ## conv4_block19_2_conv (Conv2D) (None, 2, 2, 32) 36864 [&#39;conv4_block19_1_relu[0][0]&#39;] ## ## conv4_block19_concat (Concatenate) (None, 2, 2, 864) 0 [&#39;conv4_block18_concat[0][0]&#39;, ## &#39;conv4_block19_2_conv[0][0]&#39;] ## ## conv4_block20_0_bn (BatchNormalizati (None, 2, 2, 864) 3456 [&#39;conv4_block19_concat[0][0]&#39;] ## on) ## ## conv4_block20_0_relu (Activation) (None, 2, 2, 864) 0 [&#39;conv4_block20_0_bn[0][0]&#39;] ## ## conv4_block20_1_conv (Conv2D) (None, 2, 2, 128) 110592 [&#39;conv4_block20_0_relu[0][0]&#39;] ## ## conv4_block20_1_bn (BatchNormalizati (None, 2, 2, 128) 512 [&#39;conv4_block20_1_conv[0][0]&#39;] ## on) ## ## conv4_block20_1_relu (Activation) (None, 2, 2, 128) 0 [&#39;conv4_block20_1_bn[0][0]&#39;] ## ## conv4_block20_2_conv (Conv2D) (None, 2, 2, 32) 36864 [&#39;conv4_block20_1_relu[0][0]&#39;] ## ## conv4_block20_concat (Concatenate) (None, 2, 2, 896) 0 [&#39;conv4_block19_concat[0][0]&#39;, ## &#39;conv4_block20_2_conv[0][0]&#39;] ## ## conv4_block21_0_bn (BatchNormalizati (None, 2, 2, 896) 3584 [&#39;conv4_block20_concat[0][0]&#39;] ## on) ## ## conv4_block21_0_relu (Activation) (None, 2, 2, 896) 0 [&#39;conv4_block21_0_bn[0][0]&#39;] ## ## conv4_block21_1_conv (Conv2D) (None, 2, 2, 128) 114688 [&#39;conv4_block21_0_relu[0][0]&#39;] ## ## conv4_block21_1_bn (BatchNormalizati (None, 2, 2, 128) 512 [&#39;conv4_block21_1_conv[0][0]&#39;] ## on) ## ## conv4_block21_1_relu (Activation) (None, 2, 2, 128) 0 [&#39;conv4_block21_1_bn[0][0]&#39;] ## ## conv4_block21_2_conv (Conv2D) (None, 2, 2, 32) 36864 [&#39;conv4_block21_1_relu[0][0]&#39;] ## ## conv4_block21_concat (Concatenate) (None, 2, 2, 928) 0 [&#39;conv4_block20_concat[0][0]&#39;, ## &#39;conv4_block21_2_conv[0][0]&#39;] ## ## conv4_block22_0_bn (BatchNormalizati (None, 2, 2, 928) 3712 [&#39;conv4_block21_concat[0][0]&#39;] ## on) ## ## conv4_block22_0_relu (Activation) (None, 2, 2, 928) 0 [&#39;conv4_block22_0_bn[0][0]&#39;] ## ## conv4_block22_1_conv (Conv2D) (None, 2, 2, 128) 118784 [&#39;conv4_block22_0_relu[0][0]&#39;] ## ## conv4_block22_1_bn (BatchNormalizati (None, 2, 2, 128) 512 [&#39;conv4_block22_1_conv[0][0]&#39;] ## on) ## ## conv4_block22_1_relu (Activation) (None, 2, 2, 128) 0 [&#39;conv4_block22_1_bn[0][0]&#39;] ## ## conv4_block22_2_conv (Conv2D) (None, 2, 2, 32) 36864 [&#39;conv4_block22_1_relu[0][0]&#39;] ## ## conv4_block22_concat (Concatenate) (None, 2, 2, 960) 0 [&#39;conv4_block21_concat[0][0]&#39;, ## &#39;conv4_block22_2_conv[0][0]&#39;] ## ## conv4_block23_0_bn (BatchNormalizati (None, 2, 2, 960) 3840 [&#39;conv4_block22_concat[0][0]&#39;] ## on) ## ## conv4_block23_0_relu (Activation) (None, 2, 2, 960) 0 [&#39;conv4_block23_0_bn[0][0]&#39;] ## ## conv4_block23_1_conv (Conv2D) (None, 2, 2, 128) 122880 [&#39;conv4_block23_0_relu[0][0]&#39;] ## ## conv4_block23_1_bn (BatchNormalizati (None, 2, 2, 128) 512 [&#39;conv4_block23_1_conv[0][0]&#39;] ## on) ## ## conv4_block23_1_relu (Activation) (None, 2, 2, 128) 0 [&#39;conv4_block23_1_bn[0][0]&#39;] ## ## conv4_block23_2_conv (Conv2D) (None, 2, 2, 32) 36864 [&#39;conv4_block23_1_relu[0][0]&#39;] ## ## conv4_block23_concat (Concatenate) (None, 2, 2, 992) 0 [&#39;conv4_block22_concat[0][0]&#39;, ## &#39;conv4_block23_2_conv[0][0]&#39;] ## ## conv4_block24_0_bn (BatchNormalizati (None, 2, 2, 992) 3968 [&#39;conv4_block23_concat[0][0]&#39;] ## on) ## ## conv4_block24_0_relu (Activation) (None, 2, 2, 992) 0 [&#39;conv4_block24_0_bn[0][0]&#39;] ## ## conv4_block24_1_conv (Conv2D) (None, 2, 2, 128) 126976 [&#39;conv4_block24_0_relu[0][0]&#39;] ## ## conv4_block24_1_bn (BatchNormalizati (None, 2, 2, 128) 512 [&#39;conv4_block24_1_conv[0][0]&#39;] ## on) ## ## conv4_block24_1_relu (Activation) (None, 2, 2, 128) 0 [&#39;conv4_block24_1_bn[0][0]&#39;] ## ## conv4_block24_2_conv (Conv2D) (None, 2, 2, 32) 36864 [&#39;conv4_block24_1_relu[0][0]&#39;] ## ## conv4_block24_concat (Concatenate) (None, 2, 2, 1024) 0 [&#39;conv4_block23_concat[0][0]&#39;, ## &#39;conv4_block24_2_conv[0][0]&#39;] ## ## conv4_block25_0_bn (BatchNormalizati (None, 2, 2, 1024) 4096 [&#39;conv4_block24_concat[0][0]&#39;] ## on) ## ## conv4_block25_0_relu (Activation) (None, 2, 2, 1024) 0 [&#39;conv4_block25_0_bn[0][0]&#39;] ## ## conv4_block25_1_conv (Conv2D) (None, 2, 2, 128) 131072 [&#39;conv4_block25_0_relu[0][0]&#39;] ## ## conv4_block25_1_bn (BatchNormalizati (None, 2, 2, 128) 512 [&#39;conv4_block25_1_conv[0][0]&#39;] ## on) ## ## conv4_block25_1_relu (Activation) (None, 2, 2, 128) 0 [&#39;conv4_block25_1_bn[0][0]&#39;] ## ## conv4_block25_2_conv (Conv2D) (None, 2, 2, 32) 36864 [&#39;conv4_block25_1_relu[0][0]&#39;] ## ## conv4_block25_concat (Concatenate) (None, 2, 2, 1056) 0 [&#39;conv4_block24_concat[0][0]&#39;, ## &#39;conv4_block25_2_conv[0][0]&#39;] ## ## conv4_block26_0_bn (BatchNormalizati (None, 2, 2, 1056) 4224 [&#39;conv4_block25_concat[0][0]&#39;] ## on) ## ## conv4_block26_0_relu (Activation) (None, 2, 2, 1056) 0 [&#39;conv4_block26_0_bn[0][0]&#39;] ## ## conv4_block26_1_conv (Conv2D) (None, 2, 2, 128) 135168 [&#39;conv4_block26_0_relu[0][0]&#39;] ## ## conv4_block26_1_bn (BatchNormalizati (None, 2, 2, 128) 512 [&#39;conv4_block26_1_conv[0][0]&#39;] ## on) ## ## conv4_block26_1_relu (Activation) (None, 2, 2, 128) 0 [&#39;conv4_block26_1_bn[0][0]&#39;] ## ## conv4_block26_2_conv (Conv2D) (None, 2, 2, 32) 36864 [&#39;conv4_block26_1_relu[0][0]&#39;] ## ## conv4_block26_concat (Concatenate) (None, 2, 2, 1088) 0 [&#39;conv4_block25_concat[0][0]&#39;, ## &#39;conv4_block26_2_conv[0][0]&#39;] ## ## conv4_block27_0_bn (BatchNormalizati (None, 2, 2, 1088) 4352 [&#39;conv4_block26_concat[0][0]&#39;] ## on) ## ## conv4_block27_0_relu (Activation) (None, 2, 2, 1088) 0 [&#39;conv4_block27_0_bn[0][0]&#39;] ## ## conv4_block27_1_conv (Conv2D) (None, 2, 2, 128) 139264 [&#39;conv4_block27_0_relu[0][0]&#39;] ## ## conv4_block27_1_bn (BatchNormalizati (None, 2, 2, 128) 512 [&#39;conv4_block27_1_conv[0][0]&#39;] ## on) ## ## conv4_block27_1_relu (Activation) (None, 2, 2, 128) 0 [&#39;conv4_block27_1_bn[0][0]&#39;] ## ## conv4_block27_2_conv (Conv2D) (None, 2, 2, 32) 36864 [&#39;conv4_block27_1_relu[0][0]&#39;] ## ## conv4_block27_concat (Concatenate) (None, 2, 2, 1120) 0 [&#39;conv4_block26_concat[0][0]&#39;, ## &#39;conv4_block27_2_conv[0][0]&#39;] ## ## conv4_block28_0_bn (BatchNormalizati (None, 2, 2, 1120) 4480 [&#39;conv4_block27_concat[0][0]&#39;] ## on) ## ## conv4_block28_0_relu (Activation) (None, 2, 2, 1120) 0 [&#39;conv4_block28_0_bn[0][0]&#39;] ## ## conv4_block28_1_conv (Conv2D) (None, 2, 2, 128) 143360 [&#39;conv4_block28_0_relu[0][0]&#39;] ## ## conv4_block28_1_bn (BatchNormalizati (None, 2, 2, 128) 512 [&#39;conv4_block28_1_conv[0][0]&#39;] ## on) ## ## conv4_block28_1_relu (Activation) (None, 2, 2, 128) 0 [&#39;conv4_block28_1_bn[0][0]&#39;] ## ## conv4_block28_2_conv (Conv2D) (None, 2, 2, 32) 36864 [&#39;conv4_block28_1_relu[0][0]&#39;] ## ## conv4_block28_concat (Concatenate) (None, 2, 2, 1152) 0 [&#39;conv4_block27_concat[0][0]&#39;, ## &#39;conv4_block28_2_conv[0][0]&#39;] ## ## conv4_block29_0_bn (BatchNormalizati (None, 2, 2, 1152) 4608 [&#39;conv4_block28_concat[0][0]&#39;] ## on) ## ## conv4_block29_0_relu (Activation) (None, 2, 2, 1152) 0 [&#39;conv4_block29_0_bn[0][0]&#39;] ## ## conv4_block29_1_conv (Conv2D) (None, 2, 2, 128) 147456 [&#39;conv4_block29_0_relu[0][0]&#39;] ## ## conv4_block29_1_bn (BatchNormalizati (None, 2, 2, 128) 512 [&#39;conv4_block29_1_conv[0][0]&#39;] ## on) ## ## conv4_block29_1_relu (Activation) (None, 2, 2, 128) 0 [&#39;conv4_block29_1_bn[0][0]&#39;] ## ## conv4_block29_2_conv (Conv2D) (None, 2, 2, 32) 36864 [&#39;conv4_block29_1_relu[0][0]&#39;] ## ## conv4_block29_concat (Concatenate) (None, 2, 2, 1184) 0 [&#39;conv4_block28_concat[0][0]&#39;, ## &#39;conv4_block29_2_conv[0][0]&#39;] ## ## conv4_block30_0_bn (BatchNormalizati (None, 2, 2, 1184) 4736 [&#39;conv4_block29_concat[0][0]&#39;] ## on) ## ## conv4_block30_0_relu (Activation) (None, 2, 2, 1184) 0 [&#39;conv4_block30_0_bn[0][0]&#39;] ## ## conv4_block30_1_conv (Conv2D) (None, 2, 2, 128) 151552 [&#39;conv4_block30_0_relu[0][0]&#39;] ## ## conv4_block30_1_bn (BatchNormalizati (None, 2, 2, 128) 512 [&#39;conv4_block30_1_conv[0][0]&#39;] ## on) ## ## conv4_block30_1_relu (Activation) (None, 2, 2, 128) 0 [&#39;conv4_block30_1_bn[0][0]&#39;] ## ## conv4_block30_2_conv (Conv2D) (None, 2, 2, 32) 36864 [&#39;conv4_block30_1_relu[0][0]&#39;] ## ## conv4_block30_concat (Concatenate) (None, 2, 2, 1216) 0 [&#39;conv4_block29_concat[0][0]&#39;, ## &#39;conv4_block30_2_conv[0][0]&#39;] ## ## conv4_block31_0_bn (BatchNormalizati (None, 2, 2, 1216) 4864 [&#39;conv4_block30_concat[0][0]&#39;] ## on) ## ## conv4_block31_0_relu (Activation) (None, 2, 2, 1216) 0 [&#39;conv4_block31_0_bn[0][0]&#39;] ## ## conv4_block31_1_conv (Conv2D) (None, 2, 2, 128) 155648 [&#39;conv4_block31_0_relu[0][0]&#39;] ## ## conv4_block31_1_bn (BatchNormalizati (None, 2, 2, 128) 512 [&#39;conv4_block31_1_conv[0][0]&#39;] ## on) ## ## conv4_block31_1_relu (Activation) (None, 2, 2, 128) 0 [&#39;conv4_block31_1_bn[0][0]&#39;] ## ## conv4_block31_2_conv (Conv2D) (None, 2, 2, 32) 36864 [&#39;conv4_block31_1_relu[0][0]&#39;] ## ## conv4_block31_concat (Concatenate) (None, 2, 2, 1248) 0 [&#39;conv4_block30_concat[0][0]&#39;, ## &#39;conv4_block31_2_conv[0][0]&#39;] ## ## conv4_block32_0_bn (BatchNormalizati (None, 2, 2, 1248) 4992 [&#39;conv4_block31_concat[0][0]&#39;] ## on) ## ## conv4_block32_0_relu (Activation) (None, 2, 2, 1248) 0 [&#39;conv4_block32_0_bn[0][0]&#39;] ## ## conv4_block32_1_conv (Conv2D) (None, 2, 2, 128) 159744 [&#39;conv4_block32_0_relu[0][0]&#39;] ## ## conv4_block32_1_bn (BatchNormalizati (None, 2, 2, 128) 512 [&#39;conv4_block32_1_conv[0][0]&#39;] ## on) ## ## conv4_block32_1_relu (Activation) (None, 2, 2, 128) 0 [&#39;conv4_block32_1_bn[0][0]&#39;] ## ## conv4_block32_2_conv (Conv2D) (None, 2, 2, 32) 36864 [&#39;conv4_block32_1_relu[0][0]&#39;] ## ## conv4_block32_concat (Concatenate) (None, 2, 2, 1280) 0 [&#39;conv4_block31_concat[0][0]&#39;, ## &#39;conv4_block32_2_conv[0][0]&#39;] ## ## conv4_block33_0_bn (BatchNormalizati (None, 2, 2, 1280) 5120 [&#39;conv4_block32_concat[0][0]&#39;] ## on) ## ## conv4_block33_0_relu (Activation) (None, 2, 2, 1280) 0 [&#39;conv4_block33_0_bn[0][0]&#39;] ## ## conv4_block33_1_conv (Conv2D) (None, 2, 2, 128) 163840 [&#39;conv4_block33_0_relu[0][0]&#39;] ## ## conv4_block33_1_bn (BatchNormalizati (None, 2, 2, 128) 512 [&#39;conv4_block33_1_conv[0][0]&#39;] ## on) ## ## conv4_block33_1_relu (Activation) (None, 2, 2, 128) 0 [&#39;conv4_block33_1_bn[0][0]&#39;] ## ## conv4_block33_2_conv (Conv2D) (None, 2, 2, 32) 36864 [&#39;conv4_block33_1_relu[0][0]&#39;] ## ## conv4_block33_concat (Concatenate) (None, 2, 2, 1312) 0 [&#39;conv4_block32_concat[0][0]&#39;, ## &#39;conv4_block33_2_conv[0][0]&#39;] ## ## conv4_block34_0_bn (BatchNormalizati (None, 2, 2, 1312) 5248 [&#39;conv4_block33_concat[0][0]&#39;] ## on) ## ## conv4_block34_0_relu (Activation) (None, 2, 2, 1312) 0 [&#39;conv4_block34_0_bn[0][0]&#39;] ## ## conv4_block34_1_conv (Conv2D) (None, 2, 2, 128) 167936 [&#39;conv4_block34_0_relu[0][0]&#39;] ## ## conv4_block34_1_bn (BatchNormalizati (None, 2, 2, 128) 512 [&#39;conv4_block34_1_conv[0][0]&#39;] ## on) ## ## conv4_block34_1_relu (Activation) (None, 2, 2, 128) 0 [&#39;conv4_block34_1_bn[0][0]&#39;] ## ## conv4_block34_2_conv (Conv2D) (None, 2, 2, 32) 36864 [&#39;conv4_block34_1_relu[0][0]&#39;] ## ## conv4_block34_concat (Concatenate) (None, 2, 2, 1344) 0 [&#39;conv4_block33_concat[0][0]&#39;, ## &#39;conv4_block34_2_conv[0][0]&#39;] ## ## conv4_block35_0_bn (BatchNormalizati (None, 2, 2, 1344) 5376 [&#39;conv4_block34_concat[0][0]&#39;] ## on) ## ## conv4_block35_0_relu (Activation) (None, 2, 2, 1344) 0 [&#39;conv4_block35_0_bn[0][0]&#39;] ## ## conv4_block35_1_conv (Conv2D) (None, 2, 2, 128) 172032 [&#39;conv4_block35_0_relu[0][0]&#39;] ## ## conv4_block35_1_bn (BatchNormalizati (None, 2, 2, 128) 512 [&#39;conv4_block35_1_conv[0][0]&#39;] ## on) ## ## conv4_block35_1_relu (Activation) (None, 2, 2, 128) 0 [&#39;conv4_block35_1_bn[0][0]&#39;] ## ## conv4_block35_2_conv (Conv2D) (None, 2, 2, 32) 36864 [&#39;conv4_block35_1_relu[0][0]&#39;] ## ## conv4_block35_concat (Concatenate) (None, 2, 2, 1376) 0 [&#39;conv4_block34_concat[0][0]&#39;, ## &#39;conv4_block35_2_conv[0][0]&#39;] ## ## conv4_block36_0_bn (BatchNormalizati (None, 2, 2, 1376) 5504 [&#39;conv4_block35_concat[0][0]&#39;] ## on) ## ## conv4_block36_0_relu (Activation) (None, 2, 2, 1376) 0 [&#39;conv4_block36_0_bn[0][0]&#39;] ## ## conv4_block36_1_conv (Conv2D) (None, 2, 2, 128) 176128 [&#39;conv4_block36_0_relu[0][0]&#39;] ## ## conv4_block36_1_bn (BatchNormalizati (None, 2, 2, 128) 512 [&#39;conv4_block36_1_conv[0][0]&#39;] ## on) ## ## conv4_block36_1_relu (Activation) (None, 2, 2, 128) 0 [&#39;conv4_block36_1_bn[0][0]&#39;] ## ## conv4_block36_2_conv (Conv2D) (None, 2, 2, 32) 36864 [&#39;conv4_block36_1_relu[0][0]&#39;] ## ## conv4_block36_concat (Concatenate) (None, 2, 2, 1408) 0 [&#39;conv4_block35_concat[0][0]&#39;, ## &#39;conv4_block36_2_conv[0][0]&#39;] ## ## conv4_block37_0_bn (BatchNormalizati (None, 2, 2, 1408) 5632 [&#39;conv4_block36_concat[0][0]&#39;] ## on) ## ## conv4_block37_0_relu (Activation) (None, 2, 2, 1408) 0 [&#39;conv4_block37_0_bn[0][0]&#39;] ## ## conv4_block37_1_conv (Conv2D) (None, 2, 2, 128) 180224 [&#39;conv4_block37_0_relu[0][0]&#39;] ## ## conv4_block37_1_bn (BatchNormalizati (None, 2, 2, 128) 512 [&#39;conv4_block37_1_conv[0][0]&#39;] ## on) ## ## conv4_block37_1_relu (Activation) (None, 2, 2, 128) 0 [&#39;conv4_block37_1_bn[0][0]&#39;] ## ## conv4_block37_2_conv (Conv2D) (None, 2, 2, 32) 36864 [&#39;conv4_block37_1_relu[0][0]&#39;] ## ## conv4_block37_concat (Concatenate) (None, 2, 2, 1440) 0 [&#39;conv4_block36_concat[0][0]&#39;, ## &#39;conv4_block37_2_conv[0][0]&#39;] ## ## conv4_block38_0_bn (BatchNormalizati (None, 2, 2, 1440) 5760 [&#39;conv4_block37_concat[0][0]&#39;] ## on) ## ## conv4_block38_0_relu (Activation) (None, 2, 2, 1440) 0 [&#39;conv4_block38_0_bn[0][0]&#39;] ## ## conv4_block38_1_conv (Conv2D) (None, 2, 2, 128) 184320 [&#39;conv4_block38_0_relu[0][0]&#39;] ## ## conv4_block38_1_bn (BatchNormalizati (None, 2, 2, 128) 512 [&#39;conv4_block38_1_conv[0][0]&#39;] ## on) ## ## conv4_block38_1_relu (Activation) (None, 2, 2, 128) 0 [&#39;conv4_block38_1_bn[0][0]&#39;] ## ## conv4_block38_2_conv (Conv2D) (None, 2, 2, 32) 36864 [&#39;conv4_block38_1_relu[0][0]&#39;] ## ## conv4_block38_concat (Concatenate) (None, 2, 2, 1472) 0 [&#39;conv4_block37_concat[0][0]&#39;, ## &#39;conv4_block38_2_conv[0][0]&#39;] ## ## conv4_block39_0_bn (BatchNormalizati (None, 2, 2, 1472) 5888 [&#39;conv4_block38_concat[0][0]&#39;] ## on) ## ## conv4_block39_0_relu (Activation) (None, 2, 2, 1472) 0 [&#39;conv4_block39_0_bn[0][0]&#39;] ## ## conv4_block39_1_conv (Conv2D) (None, 2, 2, 128) 188416 [&#39;conv4_block39_0_relu[0][0]&#39;] ## ## conv4_block39_1_bn (BatchNormalizati (None, 2, 2, 128) 512 [&#39;conv4_block39_1_conv[0][0]&#39;] ## on) ## ## conv4_block39_1_relu (Activation) (None, 2, 2, 128) 0 [&#39;conv4_block39_1_bn[0][0]&#39;] ## ## conv4_block39_2_conv (Conv2D) (None, 2, 2, 32) 36864 [&#39;conv4_block39_1_relu[0][0]&#39;] ## ## conv4_block39_concat (Concatenate) (None, 2, 2, 1504) 0 [&#39;conv4_block38_concat[0][0]&#39;, ## &#39;conv4_block39_2_conv[0][0]&#39;] ## ## conv4_block40_0_bn (BatchNormalizati (None, 2, 2, 1504) 6016 [&#39;conv4_block39_concat[0][0]&#39;] ## on) ## ## conv4_block40_0_relu (Activation) (None, 2, 2, 1504) 0 [&#39;conv4_block40_0_bn[0][0]&#39;] ## ## conv4_block40_1_conv (Conv2D) (None, 2, 2, 128) 192512 [&#39;conv4_block40_0_relu[0][0]&#39;] ## ## conv4_block40_1_bn (BatchNormalizati (None, 2, 2, 128) 512 [&#39;conv4_block40_1_conv[0][0]&#39;] ## on) ## ## conv4_block40_1_relu (Activation) (None, 2, 2, 128) 0 [&#39;conv4_block40_1_bn[0][0]&#39;] ## ## conv4_block40_2_conv (Conv2D) (None, 2, 2, 32) 36864 [&#39;conv4_block40_1_relu[0][0]&#39;] ## ## conv4_block40_concat (Concatenate) (None, 2, 2, 1536) 0 [&#39;conv4_block39_concat[0][0]&#39;, ## &#39;conv4_block40_2_conv[0][0]&#39;] ## ## conv4_block41_0_bn (BatchNormalizati (None, 2, 2, 1536) 6144 [&#39;conv4_block40_concat[0][0]&#39;] ## on) ## ## conv4_block41_0_relu (Activation) (None, 2, 2, 1536) 0 [&#39;conv4_block41_0_bn[0][0]&#39;] ## ## conv4_block41_1_conv (Conv2D) (None, 2, 2, 128) 196608 [&#39;conv4_block41_0_relu[0][0]&#39;] ## ## conv4_block41_1_bn (BatchNormalizati (None, 2, 2, 128) 512 [&#39;conv4_block41_1_conv[0][0]&#39;] ## on) ## ## conv4_block41_1_relu (Activation) (None, 2, 2, 128) 0 [&#39;conv4_block41_1_bn[0][0]&#39;] ## ## conv4_block41_2_conv (Conv2D) (None, 2, 2, 32) 36864 [&#39;conv4_block41_1_relu[0][0]&#39;] ## ## conv4_block41_concat (Concatenate) (None, 2, 2, 1568) 0 [&#39;conv4_block40_concat[0][0]&#39;, ## &#39;conv4_block41_2_conv[0][0]&#39;] ## ## conv4_block42_0_bn (BatchNormalizati (None, 2, 2, 1568) 6272 [&#39;conv4_block41_concat[0][0]&#39;] ## on) ## ## conv4_block42_0_relu (Activation) (None, 2, 2, 1568) 0 [&#39;conv4_block42_0_bn[0][0]&#39;] ## ## conv4_block42_1_conv (Conv2D) (None, 2, 2, 128) 200704 [&#39;conv4_block42_0_relu[0][0]&#39;] ## ## conv4_block42_1_bn (BatchNormalizati (None, 2, 2, 128) 512 [&#39;conv4_block42_1_conv[0][0]&#39;] ## on) ## ## conv4_block42_1_relu (Activation) (None, 2, 2, 128) 0 [&#39;conv4_block42_1_bn[0][0]&#39;] ## ## conv4_block42_2_conv (Conv2D) (None, 2, 2, 32) 36864 [&#39;conv4_block42_1_relu[0][0]&#39;] ## ## conv4_block42_concat (Concatenate) (None, 2, 2, 1600) 0 [&#39;conv4_block41_concat[0][0]&#39;, ## &#39;conv4_block42_2_conv[0][0]&#39;] ## ## conv4_block43_0_bn (BatchNormalizati (None, 2, 2, 1600) 6400 [&#39;conv4_block42_concat[0][0]&#39;] ## on) ## ## conv4_block43_0_relu (Activation) (None, 2, 2, 1600) 0 [&#39;conv4_block43_0_bn[0][0]&#39;] ## ## conv4_block43_1_conv (Conv2D) (None, 2, 2, 128) 204800 [&#39;conv4_block43_0_relu[0][0]&#39;] ## ## conv4_block43_1_bn (BatchNormalizati (None, 2, 2, 128) 512 [&#39;conv4_block43_1_conv[0][0]&#39;] ## on) ## ## conv4_block43_1_relu (Activation) (None, 2, 2, 128) 0 [&#39;conv4_block43_1_bn[0][0]&#39;] ## ## conv4_block43_2_conv (Conv2D) (None, 2, 2, 32) 36864 [&#39;conv4_block43_1_relu[0][0]&#39;] ## ## conv4_block43_concat (Concatenate) (None, 2, 2, 1632) 0 [&#39;conv4_block42_concat[0][0]&#39;, ## &#39;conv4_block43_2_conv[0][0]&#39;] ## ## conv4_block44_0_bn (BatchNormalizati (None, 2, 2, 1632) 6528 [&#39;conv4_block43_concat[0][0]&#39;] ## on) ## ## conv4_block44_0_relu (Activation) (None, 2, 2, 1632) 0 [&#39;conv4_block44_0_bn[0][0]&#39;] ## ## conv4_block44_1_conv (Conv2D) (None, 2, 2, 128) 208896 [&#39;conv4_block44_0_relu[0][0]&#39;] ## ## conv4_block44_1_bn (BatchNormalizati (None, 2, 2, 128) 512 [&#39;conv4_block44_1_conv[0][0]&#39;] ## on) ## ## conv4_block44_1_relu (Activation) (None, 2, 2, 128) 0 [&#39;conv4_block44_1_bn[0][0]&#39;] ## ## conv4_block44_2_conv (Conv2D) (None, 2, 2, 32) 36864 [&#39;conv4_block44_1_relu[0][0]&#39;] ## ## conv4_block44_concat (Concatenate) (None, 2, 2, 1664) 0 [&#39;conv4_block43_concat[0][0]&#39;, ## &#39;conv4_block44_2_conv[0][0]&#39;] ## ## conv4_block45_0_bn (BatchNormalizati (None, 2, 2, 1664) 6656 [&#39;conv4_block44_concat[0][0]&#39;] ## on) ## ## conv4_block45_0_relu (Activation) (None, 2, 2, 1664) 0 [&#39;conv4_block45_0_bn[0][0]&#39;] ## ## conv4_block45_1_conv (Conv2D) (None, 2, 2, 128) 212992 [&#39;conv4_block45_0_relu[0][0]&#39;] ## ## conv4_block45_1_bn (BatchNormalizati (None, 2, 2, 128) 512 [&#39;conv4_block45_1_conv[0][0]&#39;] ## on) ## ## conv4_block45_1_relu (Activation) (None, 2, 2, 128) 0 [&#39;conv4_block45_1_bn[0][0]&#39;] ## ## conv4_block45_2_conv (Conv2D) (None, 2, 2, 32) 36864 [&#39;conv4_block45_1_relu[0][0]&#39;] ## ## conv4_block45_concat (Concatenate) (None, 2, 2, 1696) 0 [&#39;conv4_block44_concat[0][0]&#39;, ## &#39;conv4_block45_2_conv[0][0]&#39;] ## ## conv4_block46_0_bn (BatchNormalizati (None, 2, 2, 1696) 6784 [&#39;conv4_block45_concat[0][0]&#39;] ## on) ## ## conv4_block46_0_relu (Activation) (None, 2, 2, 1696) 0 [&#39;conv4_block46_0_bn[0][0]&#39;] ## ## conv4_block46_1_conv (Conv2D) (None, 2, 2, 128) 217088 [&#39;conv4_block46_0_relu[0][0]&#39;] ## ## conv4_block46_1_bn (BatchNormalizati (None, 2, 2, 128) 512 [&#39;conv4_block46_1_conv[0][0]&#39;] ## on) ## ## conv4_block46_1_relu (Activation) (None, 2, 2, 128) 0 [&#39;conv4_block46_1_bn[0][0]&#39;] ## ## conv4_block46_2_conv (Conv2D) (None, 2, 2, 32) 36864 [&#39;conv4_block46_1_relu[0][0]&#39;] ## ## conv4_block46_concat (Concatenate) (None, 2, 2, 1728) 0 [&#39;conv4_block45_concat[0][0]&#39;, ## &#39;conv4_block46_2_conv[0][0]&#39;] ## ## conv4_block47_0_bn (BatchNormalizati (None, 2, 2, 1728) 6912 [&#39;conv4_block46_concat[0][0]&#39;] ## on) ## ## conv4_block47_0_relu (Activation) (None, 2, 2, 1728) 0 [&#39;conv4_block47_0_bn[0][0]&#39;] ## ## conv4_block47_1_conv (Conv2D) (None, 2, 2, 128) 221184 [&#39;conv4_block47_0_relu[0][0]&#39;] ## ## conv4_block47_1_bn (BatchNormalizati (None, 2, 2, 128) 512 [&#39;conv4_block47_1_conv[0][0]&#39;] ## on) ## ## conv4_block47_1_relu (Activation) (None, 2, 2, 128) 0 [&#39;conv4_block47_1_bn[0][0]&#39;] ## ## conv4_block47_2_conv (Conv2D) (None, 2, 2, 32) 36864 [&#39;conv4_block47_1_relu[0][0]&#39;] ## ## conv4_block47_concat (Concatenate) (None, 2, 2, 1760) 0 [&#39;conv4_block46_concat[0][0]&#39;, ## &#39;conv4_block47_2_conv[0][0]&#39;] ## ## conv4_block48_0_bn (BatchNormalizati (None, 2, 2, 1760) 7040 [&#39;conv4_block47_concat[0][0]&#39;] ## on) ## ## conv4_block48_0_relu (Activation) (None, 2, 2, 1760) 0 [&#39;conv4_block48_0_bn[0][0]&#39;] ## ## conv4_block48_1_conv (Conv2D) (None, 2, 2, 128) 225280 [&#39;conv4_block48_0_relu[0][0]&#39;] ## ## conv4_block48_1_bn (BatchNormalizati (None, 2, 2, 128) 512 [&#39;conv4_block48_1_conv[0][0]&#39;] ## on) ## ## conv4_block48_1_relu (Activation) (None, 2, 2, 128) 0 [&#39;conv4_block48_1_bn[0][0]&#39;] ## ## conv4_block48_2_conv (Conv2D) (None, 2, 2, 32) 36864 [&#39;conv4_block48_1_relu[0][0]&#39;] ## ## conv4_block48_concat (Concatenate) (None, 2, 2, 1792) 0 [&#39;conv4_block47_concat[0][0]&#39;, ## &#39;conv4_block48_2_conv[0][0]&#39;] ## ## pool4_bn (BatchNormalization) (None, 2, 2, 1792) 7168 [&#39;conv4_block48_concat[0][0]&#39;] ## ## pool4_relu (Activation) (None, 2, 2, 1792) 0 [&#39;pool4_bn[0][0]&#39;] ## ## pool4_conv (Conv2D) (None, 2, 2, 896) 1605632 [&#39;pool4_relu[0][0]&#39;] ## ## pool4_pool (AveragePooling2D) (None, 1, 1, 896) 0 [&#39;pool4_conv[0][0]&#39;] ## ## conv5_block1_0_bn (BatchNormalizatio (None, 1, 1, 896) 3584 [&#39;pool4_pool[0][0]&#39;] ## n) ## ## conv5_block1_0_relu (Activation) (None, 1, 1, 896) 0 [&#39;conv5_block1_0_bn[0][0]&#39;] ## ## conv5_block1_1_conv (Conv2D) (None, 1, 1, 128) 114688 [&#39;conv5_block1_0_relu[0][0]&#39;] ## ## conv5_block1_1_bn (BatchNormalizatio (None, 1, 1, 128) 512 [&#39;conv5_block1_1_conv[0][0]&#39;] ## n) ## ## conv5_block1_1_relu (Activation) (None, 1, 1, 128) 0 [&#39;conv5_block1_1_bn[0][0]&#39;] ## ## conv5_block1_2_conv (Conv2D) (None, 1, 1, 32) 36864 [&#39;conv5_block1_1_relu[0][0]&#39;] ## ## conv5_block1_concat (Concatenate) (None, 1, 1, 928) 0 [&#39;pool4_pool[0][0]&#39;, ## &#39;conv5_block1_2_conv[0][0]&#39;] ## ## conv5_block2_0_bn (BatchNormalizatio (None, 1, 1, 928) 3712 [&#39;conv5_block1_concat[0][0]&#39;] ## n) ## ## conv5_block2_0_relu (Activation) (None, 1, 1, 928) 0 [&#39;conv5_block2_0_bn[0][0]&#39;] ## ## conv5_block2_1_conv (Conv2D) (None, 1, 1, 128) 118784 [&#39;conv5_block2_0_relu[0][0]&#39;] ## ## conv5_block2_1_bn (BatchNormalizatio (None, 1, 1, 128) 512 [&#39;conv5_block2_1_conv[0][0]&#39;] ## n) ## ## conv5_block2_1_relu (Activation) (None, 1, 1, 128) 0 [&#39;conv5_block2_1_bn[0][0]&#39;] ## ## conv5_block2_2_conv (Conv2D) (None, 1, 1, 32) 36864 [&#39;conv5_block2_1_relu[0][0]&#39;] ## ## conv5_block2_concat (Concatenate) (None, 1, 1, 960) 0 [&#39;conv5_block1_concat[0][0]&#39;, ## &#39;conv5_block2_2_conv[0][0]&#39;] ## ## conv5_block3_0_bn (BatchNormalizatio (None, 1, 1, 960) 3840 [&#39;conv5_block2_concat[0][0]&#39;] ## n) ## ## conv5_block3_0_relu (Activation) (None, 1, 1, 960) 0 [&#39;conv5_block3_0_bn[0][0]&#39;] ## ## conv5_block3_1_conv (Conv2D) (None, 1, 1, 128) 122880 [&#39;conv5_block3_0_relu[0][0]&#39;] ## ## conv5_block3_1_bn (BatchNormalizatio (None, 1, 1, 128) 512 [&#39;conv5_block3_1_conv[0][0]&#39;] ## n) ## ## conv5_block3_1_relu (Activation) (None, 1, 1, 128) 0 [&#39;conv5_block3_1_bn[0][0]&#39;] ## ## conv5_block3_2_conv (Conv2D) (None, 1, 1, 32) 36864 [&#39;conv5_block3_1_relu[0][0]&#39;] ## ## conv5_block3_concat (Concatenate) (None, 1, 1, 992) 0 [&#39;conv5_block2_concat[0][0]&#39;, ## &#39;conv5_block3_2_conv[0][0]&#39;] ## ## conv5_block4_0_bn (BatchNormalizatio (None, 1, 1, 992) 3968 [&#39;conv5_block3_concat[0][0]&#39;] ## n) ## ## conv5_block4_0_relu (Activation) (None, 1, 1, 992) 0 [&#39;conv5_block4_0_bn[0][0]&#39;] ## ## conv5_block4_1_conv (Conv2D) (None, 1, 1, 128) 126976 [&#39;conv5_block4_0_relu[0][0]&#39;] ## ## conv5_block4_1_bn (BatchNormalizatio (None, 1, 1, 128) 512 [&#39;conv5_block4_1_conv[0][0]&#39;] ## n) ## ## conv5_block4_1_relu (Activation) (None, 1, 1, 128) 0 [&#39;conv5_block4_1_bn[0][0]&#39;] ## ## conv5_block4_2_conv (Conv2D) (None, 1, 1, 32) 36864 [&#39;conv5_block4_1_relu[0][0]&#39;] ## ## conv5_block4_concat (Concatenate) (None, 1, 1, 1024) 0 [&#39;conv5_block3_concat[0][0]&#39;, ## &#39;conv5_block4_2_conv[0][0]&#39;] ## ## conv5_block5_0_bn (BatchNormalizatio (None, 1, 1, 1024) 4096 [&#39;conv5_block4_concat[0][0]&#39;] ## n) ## ## conv5_block5_0_relu (Activation) (None, 1, 1, 1024) 0 [&#39;conv5_block5_0_bn[0][0]&#39;] ## ## conv5_block5_1_conv (Conv2D) (None, 1, 1, 128) 131072 [&#39;conv5_block5_0_relu[0][0]&#39;] ## ## conv5_block5_1_bn (BatchNormalizatio (None, 1, 1, 128) 512 [&#39;conv5_block5_1_conv[0][0]&#39;] ## n) ## ## conv5_block5_1_relu (Activation) (None, 1, 1, 128) 0 [&#39;conv5_block5_1_bn[0][0]&#39;] ## ## conv5_block5_2_conv (Conv2D) (None, 1, 1, 32) 36864 [&#39;conv5_block5_1_relu[0][0]&#39;] ## ## conv5_block5_concat (Concatenate) (None, 1, 1, 1056) 0 [&#39;conv5_block4_concat[0][0]&#39;, ## &#39;conv5_block5_2_conv[0][0]&#39;] ## ## conv5_block6_0_bn (BatchNormalizatio (None, 1, 1, 1056) 4224 [&#39;conv5_block5_concat[0][0]&#39;] ## n) ## ## conv5_block6_0_relu (Activation) (None, 1, 1, 1056) 0 [&#39;conv5_block6_0_bn[0][0]&#39;] ## ## conv5_block6_1_conv (Conv2D) (None, 1, 1, 128) 135168 [&#39;conv5_block6_0_relu[0][0]&#39;] ## ## conv5_block6_1_bn (BatchNormalizatio (None, 1, 1, 128) 512 [&#39;conv5_block6_1_conv[0][0]&#39;] ## n) ## ## conv5_block6_1_relu (Activation) (None, 1, 1, 128) 0 [&#39;conv5_block6_1_bn[0][0]&#39;] ## ## conv5_block6_2_conv (Conv2D) (None, 1, 1, 32) 36864 [&#39;conv5_block6_1_relu[0][0]&#39;] ## ## conv5_block6_concat (Concatenate) (None, 1, 1, 1088) 0 [&#39;conv5_block5_concat[0][0]&#39;, ## &#39;conv5_block6_2_conv[0][0]&#39;] ## ## conv5_block7_0_bn (BatchNormalizatio (None, 1, 1, 1088) 4352 [&#39;conv5_block6_concat[0][0]&#39;] ## n) ## ## conv5_block7_0_relu (Activation) (None, 1, 1, 1088) 0 [&#39;conv5_block7_0_bn[0][0]&#39;] ## ## conv5_block7_1_conv (Conv2D) (None, 1, 1, 128) 139264 [&#39;conv5_block7_0_relu[0][0]&#39;] ## ## conv5_block7_1_bn (BatchNormalizatio (None, 1, 1, 128) 512 [&#39;conv5_block7_1_conv[0][0]&#39;] ## n) ## ## conv5_block7_1_relu (Activation) (None, 1, 1, 128) 0 [&#39;conv5_block7_1_bn[0][0]&#39;] ## ## conv5_block7_2_conv (Conv2D) (None, 1, 1, 32) 36864 [&#39;conv5_block7_1_relu[0][0]&#39;] ## ## conv5_block7_concat (Concatenate) (None, 1, 1, 1120) 0 [&#39;conv5_block6_concat[0][0]&#39;, ## &#39;conv5_block7_2_conv[0][0]&#39;] ## ## conv5_block8_0_bn (BatchNormalizatio (None, 1, 1, 1120) 4480 [&#39;conv5_block7_concat[0][0]&#39;] ## n) ## ## conv5_block8_0_relu (Activation) (None, 1, 1, 1120) 0 [&#39;conv5_block8_0_bn[0][0]&#39;] ## ## conv5_block8_1_conv (Conv2D) (None, 1, 1, 128) 143360 [&#39;conv5_block8_0_relu[0][0]&#39;] ## ## conv5_block8_1_bn (BatchNormalizatio (None, 1, 1, 128) 512 [&#39;conv5_block8_1_conv[0][0]&#39;] ## n) ## ## conv5_block8_1_relu (Activation) (None, 1, 1, 128) 0 [&#39;conv5_block8_1_bn[0][0]&#39;] ## ## conv5_block8_2_conv (Conv2D) (None, 1, 1, 32) 36864 [&#39;conv5_block8_1_relu[0][0]&#39;] ## ## conv5_block8_concat (Concatenate) (None, 1, 1, 1152) 0 [&#39;conv5_block7_concat[0][0]&#39;, ## &#39;conv5_block8_2_conv[0][0]&#39;] ## ## conv5_block9_0_bn (BatchNormalizatio (None, 1, 1, 1152) 4608 [&#39;conv5_block8_concat[0][0]&#39;] ## n) ## ## conv5_block9_0_relu (Activation) (None, 1, 1, 1152) 0 [&#39;conv5_block9_0_bn[0][0]&#39;] ## ## conv5_block9_1_conv (Conv2D) (None, 1, 1, 128) 147456 [&#39;conv5_block9_0_relu[0][0]&#39;] ## ## conv5_block9_1_bn (BatchNormalizatio (None, 1, 1, 128) 512 [&#39;conv5_block9_1_conv[0][0]&#39;] ## n) ## ## conv5_block9_1_relu (Activation) (None, 1, 1, 128) 0 [&#39;conv5_block9_1_bn[0][0]&#39;] ## ## conv5_block9_2_conv (Conv2D) (None, 1, 1, 32) 36864 [&#39;conv5_block9_1_relu[0][0]&#39;] ## ## conv5_block9_concat (Concatenate) (None, 1, 1, 1184) 0 [&#39;conv5_block8_concat[0][0]&#39;, ## &#39;conv5_block9_2_conv[0][0]&#39;] ## ## conv5_block10_0_bn (BatchNormalizati (None, 1, 1, 1184) 4736 [&#39;conv5_block9_concat[0][0]&#39;] ## on) ## ## conv5_block10_0_relu (Activation) (None, 1, 1, 1184) 0 [&#39;conv5_block10_0_bn[0][0]&#39;] ## ## conv5_block10_1_conv (Conv2D) (None, 1, 1, 128) 151552 [&#39;conv5_block10_0_relu[0][0]&#39;] ## ## conv5_block10_1_bn (BatchNormalizati (None, 1, 1, 128) 512 [&#39;conv5_block10_1_conv[0][0]&#39;] ## on) ## ## conv5_block10_1_relu (Activation) (None, 1, 1, 128) 0 [&#39;conv5_block10_1_bn[0][0]&#39;] ## ## conv5_block10_2_conv (Conv2D) (None, 1, 1, 32) 36864 [&#39;conv5_block10_1_relu[0][0]&#39;] ## ## conv5_block10_concat (Concatenate) (None, 1, 1, 1216) 0 [&#39;conv5_block9_concat[0][0]&#39;, ## &#39;conv5_block10_2_conv[0][0]&#39;] ## ## conv5_block11_0_bn (BatchNormalizati (None, 1, 1, 1216) 4864 [&#39;conv5_block10_concat[0][0]&#39;] ## on) ## ## conv5_block11_0_relu (Activation) (None, 1, 1, 1216) 0 [&#39;conv5_block11_0_bn[0][0]&#39;] ## ## conv5_block11_1_conv (Conv2D) (None, 1, 1, 128) 155648 [&#39;conv5_block11_0_relu[0][0]&#39;] ## ## conv5_block11_1_bn (BatchNormalizati (None, 1, 1, 128) 512 [&#39;conv5_block11_1_conv[0][0]&#39;] ## on) ## ## conv5_block11_1_relu (Activation) (None, 1, 1, 128) 0 [&#39;conv5_block11_1_bn[0][0]&#39;] ## ## conv5_block11_2_conv (Conv2D) (None, 1, 1, 32) 36864 [&#39;conv5_block11_1_relu[0][0]&#39;] ## ## conv5_block11_concat (Concatenate) (None, 1, 1, 1248) 0 [&#39;conv5_block10_concat[0][0]&#39;, ## &#39;conv5_block11_2_conv[0][0]&#39;] ## ## conv5_block12_0_bn (BatchNormalizati (None, 1, 1, 1248) 4992 [&#39;conv5_block11_concat[0][0]&#39;] ## on) ## ## conv5_block12_0_relu (Activation) (None, 1, 1, 1248) 0 [&#39;conv5_block12_0_bn[0][0]&#39;] ## ## conv5_block12_1_conv (Conv2D) (None, 1, 1, 128) 159744 [&#39;conv5_block12_0_relu[0][0]&#39;] ## ## conv5_block12_1_bn (BatchNormalizati (None, 1, 1, 128) 512 [&#39;conv5_block12_1_conv[0][0]&#39;] ## on) ## ## conv5_block12_1_relu (Activation) (None, 1, 1, 128) 0 [&#39;conv5_block12_1_bn[0][0]&#39;] ## ## conv5_block12_2_conv (Conv2D) (None, 1, 1, 32) 36864 [&#39;conv5_block12_1_relu[0][0]&#39;] ## ## conv5_block12_concat (Concatenate) (None, 1, 1, 1280) 0 [&#39;conv5_block11_concat[0][0]&#39;, ## &#39;conv5_block12_2_conv[0][0]&#39;] ## ## conv5_block13_0_bn (BatchNormalizati (None, 1, 1, 1280) 5120 [&#39;conv5_block12_concat[0][0]&#39;] ## on) ## ## conv5_block13_0_relu (Activation) (None, 1, 1, 1280) 0 [&#39;conv5_block13_0_bn[0][0]&#39;] ## ## conv5_block13_1_conv (Conv2D) (None, 1, 1, 128) 163840 [&#39;conv5_block13_0_relu[0][0]&#39;] ## ## conv5_block13_1_bn (BatchNormalizati (None, 1, 1, 128) 512 [&#39;conv5_block13_1_conv[0][0]&#39;] ## on) ## ## conv5_block13_1_relu (Activation) (None, 1, 1, 128) 0 [&#39;conv5_block13_1_bn[0][0]&#39;] ## ## conv5_block13_2_conv (Conv2D) (None, 1, 1, 32) 36864 [&#39;conv5_block13_1_relu[0][0]&#39;] ## ## conv5_block13_concat (Concatenate) (None, 1, 1, 1312) 0 [&#39;conv5_block12_concat[0][0]&#39;, ## &#39;conv5_block13_2_conv[0][0]&#39;] ## ## conv5_block14_0_bn (BatchNormalizati (None, 1, 1, 1312) 5248 [&#39;conv5_block13_concat[0][0]&#39;] ## on) ## ## conv5_block14_0_relu (Activation) (None, 1, 1, 1312) 0 [&#39;conv5_block14_0_bn[0][0]&#39;] ## ## conv5_block14_1_conv (Conv2D) (None, 1, 1, 128) 167936 [&#39;conv5_block14_0_relu[0][0]&#39;] ## ## conv5_block14_1_bn (BatchNormalizati (None, 1, 1, 128) 512 [&#39;conv5_block14_1_conv[0][0]&#39;] ## on) ## ## conv5_block14_1_relu (Activation) (None, 1, 1, 128) 0 [&#39;conv5_block14_1_bn[0][0]&#39;] ## ## conv5_block14_2_conv (Conv2D) (None, 1, 1, 32) 36864 [&#39;conv5_block14_1_relu[0][0]&#39;] ## ## conv5_block14_concat (Concatenate) (None, 1, 1, 1344) 0 [&#39;conv5_block13_concat[0][0]&#39;, ## &#39;conv5_block14_2_conv[0][0]&#39;] ## ## conv5_block15_0_bn (BatchNormalizati (None, 1, 1, 1344) 5376 [&#39;conv5_block14_concat[0][0]&#39;] ## on) ## ## conv5_block15_0_relu (Activation) (None, 1, 1, 1344) 0 [&#39;conv5_block15_0_bn[0][0]&#39;] ## ## conv5_block15_1_conv (Conv2D) (None, 1, 1, 128) 172032 [&#39;conv5_block15_0_relu[0][0]&#39;] ## ## conv5_block15_1_bn (BatchNormalizati (None, 1, 1, 128) 512 [&#39;conv5_block15_1_conv[0][0]&#39;] ## on) ## ## conv5_block15_1_relu (Activation) (None, 1, 1, 128) 0 [&#39;conv5_block15_1_bn[0][0]&#39;] ## ## conv5_block15_2_conv (Conv2D) (None, 1, 1, 32) 36864 [&#39;conv5_block15_1_relu[0][0]&#39;] ## ## conv5_block15_concat (Concatenate) (None, 1, 1, 1376) 0 [&#39;conv5_block14_concat[0][0]&#39;, ## &#39;conv5_block15_2_conv[0][0]&#39;] ## ## conv5_block16_0_bn (BatchNormalizati (None, 1, 1, 1376) 5504 [&#39;conv5_block15_concat[0][0]&#39;] ## on) ## ## conv5_block16_0_relu (Activation) (None, 1, 1, 1376) 0 [&#39;conv5_block16_0_bn[0][0]&#39;] ## ## conv5_block16_1_conv (Conv2D) (None, 1, 1, 128) 176128 [&#39;conv5_block16_0_relu[0][0]&#39;] ## ## conv5_block16_1_bn (BatchNormalizati (None, 1, 1, 128) 512 [&#39;conv5_block16_1_conv[0][0]&#39;] ## on) ## ## conv5_block16_1_relu (Activation) (None, 1, 1, 128) 0 [&#39;conv5_block16_1_bn[0][0]&#39;] ## ## conv5_block16_2_conv (Conv2D) (None, 1, 1, 32) 36864 [&#39;conv5_block16_1_relu[0][0]&#39;] ## ## conv5_block16_concat (Concatenate) (None, 1, 1, 1408) 0 [&#39;conv5_block15_concat[0][0]&#39;, ## &#39;conv5_block16_2_conv[0][0]&#39;] ## ## conv5_block17_0_bn (BatchNormalizati (None, 1, 1, 1408) 5632 [&#39;conv5_block16_concat[0][0]&#39;] ## on) ## ## conv5_block17_0_relu (Activation) (None, 1, 1, 1408) 0 [&#39;conv5_block17_0_bn[0][0]&#39;] ## ## conv5_block17_1_conv (Conv2D) (None, 1, 1, 128) 180224 [&#39;conv5_block17_0_relu[0][0]&#39;] ## ## conv5_block17_1_bn (BatchNormalizati (None, 1, 1, 128) 512 [&#39;conv5_block17_1_conv[0][0]&#39;] ## on) ## ## conv5_block17_1_relu (Activation) (None, 1, 1, 128) 0 [&#39;conv5_block17_1_bn[0][0]&#39;] ## ## conv5_block17_2_conv (Conv2D) (None, 1, 1, 32) 36864 [&#39;conv5_block17_1_relu[0][0]&#39;] ## ## conv5_block17_concat (Concatenate) (None, 1, 1, 1440) 0 [&#39;conv5_block16_concat[0][0]&#39;, ## &#39;conv5_block17_2_conv[0][0]&#39;] ## ## conv5_block18_0_bn (BatchNormalizati (None, 1, 1, 1440) 5760 [&#39;conv5_block17_concat[0][0]&#39;] ## on) ## ## conv5_block18_0_relu (Activation) (None, 1, 1, 1440) 0 [&#39;conv5_block18_0_bn[0][0]&#39;] ## ## conv5_block18_1_conv (Conv2D) (None, 1, 1, 128) 184320 [&#39;conv5_block18_0_relu[0][0]&#39;] ## ## conv5_block18_1_bn (BatchNormalizati (None, 1, 1, 128) 512 [&#39;conv5_block18_1_conv[0][0]&#39;] ## on) ## ## conv5_block18_1_relu (Activation) (None, 1, 1, 128) 0 [&#39;conv5_block18_1_bn[0][0]&#39;] ## ## conv5_block18_2_conv (Conv2D) (None, 1, 1, 32) 36864 [&#39;conv5_block18_1_relu[0][0]&#39;] ## ## conv5_block18_concat (Concatenate) (None, 1, 1, 1472) 0 [&#39;conv5_block17_concat[0][0]&#39;, ## &#39;conv5_block18_2_conv[0][0]&#39;] ## ## conv5_block19_0_bn (BatchNormalizati (None, 1, 1, 1472) 5888 [&#39;conv5_block18_concat[0][0]&#39;] ## on) ## ## conv5_block19_0_relu (Activation) (None, 1, 1, 1472) 0 [&#39;conv5_block19_0_bn[0][0]&#39;] ## ## conv5_block19_1_conv (Conv2D) (None, 1, 1, 128) 188416 [&#39;conv5_block19_0_relu[0][0]&#39;] ## ## conv5_block19_1_bn (BatchNormalizati (None, 1, 1, 128) 512 [&#39;conv5_block19_1_conv[0][0]&#39;] ## on) ## ## conv5_block19_1_relu (Activation) (None, 1, 1, 128) 0 [&#39;conv5_block19_1_bn[0][0]&#39;] ## ## conv5_block19_2_conv (Conv2D) (None, 1, 1, 32) 36864 [&#39;conv5_block19_1_relu[0][0]&#39;] ## ## conv5_block19_concat (Concatenate) (None, 1, 1, 1504) 0 [&#39;conv5_block18_concat[0][0]&#39;, ## &#39;conv5_block19_2_conv[0][0]&#39;] ## ## conv5_block20_0_bn (BatchNormalizati (None, 1, 1, 1504) 6016 [&#39;conv5_block19_concat[0][0]&#39;] ## on) ## ## conv5_block20_0_relu (Activation) (None, 1, 1, 1504) 0 [&#39;conv5_block20_0_bn[0][0]&#39;] ## ## conv5_block20_1_conv (Conv2D) (None, 1, 1, 128) 192512 [&#39;conv5_block20_0_relu[0][0]&#39;] ## ## conv5_block20_1_bn (BatchNormalizati (None, 1, 1, 128) 512 [&#39;conv5_block20_1_conv[0][0]&#39;] ## on) ## ## conv5_block20_1_relu (Activation) (None, 1, 1, 128) 0 [&#39;conv5_block20_1_bn[0][0]&#39;] ## ## conv5_block20_2_conv (Conv2D) (None, 1, 1, 32) 36864 [&#39;conv5_block20_1_relu[0][0]&#39;] ## ## conv5_block20_concat (Concatenate) (None, 1, 1, 1536) 0 [&#39;conv5_block19_concat[0][0]&#39;, ## &#39;conv5_block20_2_conv[0][0]&#39;] ## ## conv5_block21_0_bn (BatchNormalizati (None, 1, 1, 1536) 6144 [&#39;conv5_block20_concat[0][0]&#39;] ## on) ## ## conv5_block21_0_relu (Activation) (None, 1, 1, 1536) 0 [&#39;conv5_block21_0_bn[0][0]&#39;] ## ## conv5_block21_1_conv (Conv2D) (None, 1, 1, 128) 196608 [&#39;conv5_block21_0_relu[0][0]&#39;] ## ## conv5_block21_1_bn (BatchNormalizati (None, 1, 1, 128) 512 [&#39;conv5_block21_1_conv[0][0]&#39;] ## on) ## ## conv5_block21_1_relu (Activation) (None, 1, 1, 128) 0 [&#39;conv5_block21_1_bn[0][0]&#39;] ## ## conv5_block21_2_conv (Conv2D) (None, 1, 1, 32) 36864 [&#39;conv5_block21_1_relu[0][0]&#39;] ## ## conv5_block21_concat (Concatenate) (None, 1, 1, 1568) 0 [&#39;conv5_block20_concat[0][0]&#39;, ## &#39;conv5_block21_2_conv[0][0]&#39;] ## ## conv5_block22_0_bn (BatchNormalizati (None, 1, 1, 1568) 6272 [&#39;conv5_block21_concat[0][0]&#39;] ## on) ## ## conv5_block22_0_relu (Activation) (None, 1, 1, 1568) 0 [&#39;conv5_block22_0_bn[0][0]&#39;] ## ## conv5_block22_1_conv (Conv2D) (None, 1, 1, 128) 200704 [&#39;conv5_block22_0_relu[0][0]&#39;] ## ## conv5_block22_1_bn (BatchNormalizati (None, 1, 1, 128) 512 [&#39;conv5_block22_1_conv[0][0]&#39;] ## on) ## ## conv5_block22_1_relu (Activation) (None, 1, 1, 128) 0 [&#39;conv5_block22_1_bn[0][0]&#39;] ## ## conv5_block22_2_conv (Conv2D) (None, 1, 1, 32) 36864 [&#39;conv5_block22_1_relu[0][0]&#39;] ## ## conv5_block22_concat (Concatenate) (None, 1, 1, 1600) 0 [&#39;conv5_block21_concat[0][0]&#39;, ## &#39;conv5_block22_2_conv[0][0]&#39;] ## ## conv5_block23_0_bn (BatchNormalizati (None, 1, 1, 1600) 6400 [&#39;conv5_block22_concat[0][0]&#39;] ## on) ## ## conv5_block23_0_relu (Activation) (None, 1, 1, 1600) 0 [&#39;conv5_block23_0_bn[0][0]&#39;] ## ## conv5_block23_1_conv (Conv2D) (None, 1, 1, 128) 204800 [&#39;conv5_block23_0_relu[0][0]&#39;] ## ## conv5_block23_1_bn (BatchNormalizati (None, 1, 1, 128) 512 [&#39;conv5_block23_1_conv[0][0]&#39;] ## on) ## ## conv5_block23_1_relu (Activation) (None, 1, 1, 128) 0 [&#39;conv5_block23_1_bn[0][0]&#39;] ## ## conv5_block23_2_conv (Conv2D) (None, 1, 1, 32) 36864 [&#39;conv5_block23_1_relu[0][0]&#39;] ## ## conv5_block23_concat (Concatenate) (None, 1, 1, 1632) 0 [&#39;conv5_block22_concat[0][0]&#39;, ## &#39;conv5_block23_2_conv[0][0]&#39;] ## ## conv5_block24_0_bn (BatchNormalizati (None, 1, 1, 1632) 6528 [&#39;conv5_block23_concat[0][0]&#39;] ## on) ## ## conv5_block24_0_relu (Activation) (None, 1, 1, 1632) 0 [&#39;conv5_block24_0_bn[0][0]&#39;] ## ## conv5_block24_1_conv (Conv2D) (None, 1, 1, 128) 208896 [&#39;conv5_block24_0_relu[0][0]&#39;] ## ## conv5_block24_1_bn (BatchNormalizati (None, 1, 1, 128) 512 [&#39;conv5_block24_1_conv[0][0]&#39;] ## on) ## ## conv5_block24_1_relu (Activation) (None, 1, 1, 128) 0 [&#39;conv5_block24_1_bn[0][0]&#39;] ## ## conv5_block24_2_conv (Conv2D) (None, 1, 1, 32) 36864 [&#39;conv5_block24_1_relu[0][0]&#39;] ## ## conv5_block24_concat (Concatenate) (None, 1, 1, 1664) 0 [&#39;conv5_block23_concat[0][0]&#39;, ## &#39;conv5_block24_2_conv[0][0]&#39;] ## ## conv5_block25_0_bn (BatchNormalizati (None, 1, 1, 1664) 6656 [&#39;conv5_block24_concat[0][0]&#39;] ## on) ## ## conv5_block25_0_relu (Activation) (None, 1, 1, 1664) 0 [&#39;conv5_block25_0_bn[0][0]&#39;] ## ## conv5_block25_1_conv (Conv2D) (None, 1, 1, 128) 212992 [&#39;conv5_block25_0_relu[0][0]&#39;] ## ## conv5_block25_1_bn (BatchNormalizati (None, 1, 1, 128) 512 [&#39;conv5_block25_1_conv[0][0]&#39;] ## on) ## ## conv5_block25_1_relu (Activation) (None, 1, 1, 128) 0 [&#39;conv5_block25_1_bn[0][0]&#39;] ## ## conv5_block25_2_conv (Conv2D) (None, 1, 1, 32) 36864 [&#39;conv5_block25_1_relu[0][0]&#39;] ## ## conv5_block25_concat (Concatenate) (None, 1, 1, 1696) 0 [&#39;conv5_block24_concat[0][0]&#39;, ## &#39;conv5_block25_2_conv[0][0]&#39;] ## ## conv5_block26_0_bn (BatchNormalizati (None, 1, 1, 1696) 6784 [&#39;conv5_block25_concat[0][0]&#39;] ## on) ## ## conv5_block26_0_relu (Activation) (None, 1, 1, 1696) 0 [&#39;conv5_block26_0_bn[0][0]&#39;] ## ## conv5_block26_1_conv (Conv2D) (None, 1, 1, 128) 217088 [&#39;conv5_block26_0_relu[0][0]&#39;] ## ## conv5_block26_1_bn (BatchNormalizati (None, 1, 1, 128) 512 [&#39;conv5_block26_1_conv[0][0]&#39;] ## on) ## ## conv5_block26_1_relu (Activation) (None, 1, 1, 128) 0 [&#39;conv5_block26_1_bn[0][0]&#39;] ## ## conv5_block26_2_conv (Conv2D) (None, 1, 1, 32) 36864 [&#39;conv5_block26_1_relu[0][0]&#39;] ## ## conv5_block26_concat (Concatenate) (None, 1, 1, 1728) 0 [&#39;conv5_block25_concat[0][0]&#39;, ## &#39;conv5_block26_2_conv[0][0]&#39;] ## ## conv5_block27_0_bn (BatchNormalizati (None, 1, 1, 1728) 6912 [&#39;conv5_block26_concat[0][0]&#39;] ## on) ## ## conv5_block27_0_relu (Activation) (None, 1, 1, 1728) 0 [&#39;conv5_block27_0_bn[0][0]&#39;] ## ## conv5_block27_1_conv (Conv2D) (None, 1, 1, 128) 221184 [&#39;conv5_block27_0_relu[0][0]&#39;] ## ## conv5_block27_1_bn (BatchNormalizati (None, 1, 1, 128) 512 [&#39;conv5_block27_1_conv[0][0]&#39;] ## on) ## ## conv5_block27_1_relu (Activation) (None, 1, 1, 128) 0 [&#39;conv5_block27_1_bn[0][0]&#39;] ## ## conv5_block27_2_conv (Conv2D) (None, 1, 1, 32) 36864 [&#39;conv5_block27_1_relu[0][0]&#39;] ## ## conv5_block27_concat (Concatenate) (None, 1, 1, 1760) 0 [&#39;conv5_block26_concat[0][0]&#39;, ## &#39;conv5_block27_2_conv[0][0]&#39;] ## ## conv5_block28_0_bn (BatchNormalizati (None, 1, 1, 1760) 7040 [&#39;conv5_block27_concat[0][0]&#39;] ## on) ## ## conv5_block28_0_relu (Activation) (None, 1, 1, 1760) 0 [&#39;conv5_block28_0_bn[0][0]&#39;] ## ## conv5_block28_1_conv (Conv2D) (None, 1, 1, 128) 225280 [&#39;conv5_block28_0_relu[0][0]&#39;] ## ## conv5_block28_1_bn (BatchNormalizati (None, 1, 1, 128) 512 [&#39;conv5_block28_1_conv[0][0]&#39;] ## on) ## ## conv5_block28_1_relu (Activation) (None, 1, 1, 128) 0 [&#39;conv5_block28_1_bn[0][0]&#39;] ## ## conv5_block28_2_conv (Conv2D) (None, 1, 1, 32) 36864 [&#39;conv5_block28_1_relu[0][0]&#39;] ## ## conv5_block28_concat (Concatenate) (None, 1, 1, 1792) 0 [&#39;conv5_block27_concat[0][0]&#39;, ## &#39;conv5_block28_2_conv[0][0]&#39;] ## ## conv5_block29_0_bn (BatchNormalizati (None, 1, 1, 1792) 7168 [&#39;conv5_block28_concat[0][0]&#39;] ## on) ## ## conv5_block29_0_relu (Activation) (None, 1, 1, 1792) 0 [&#39;conv5_block29_0_bn[0][0]&#39;] ## ## conv5_block29_1_conv (Conv2D) (None, 1, 1, 128) 229376 [&#39;conv5_block29_0_relu[0][0]&#39;] ## ## conv5_block29_1_bn (BatchNormalizati (None, 1, 1, 128) 512 [&#39;conv5_block29_1_conv[0][0]&#39;] ## on) ## ## conv5_block29_1_relu (Activation) (None, 1, 1, 128) 0 [&#39;conv5_block29_1_bn[0][0]&#39;] ## ## conv5_block29_2_conv (Conv2D) (None, 1, 1, 32) 36864 [&#39;conv5_block29_1_relu[0][0]&#39;] ## ## conv5_block29_concat (Concatenate) (None, 1, 1, 1824) 0 [&#39;conv5_block28_concat[0][0]&#39;, ## &#39;conv5_block29_2_conv[0][0]&#39;] ## ## conv5_block30_0_bn (BatchNormalizati (None, 1, 1, 1824) 7296 [&#39;conv5_block29_concat[0][0]&#39;] ## on) ## ## conv5_block30_0_relu (Activation) (None, 1, 1, 1824) 0 [&#39;conv5_block30_0_bn[0][0]&#39;] ## ## conv5_block30_1_conv (Conv2D) (None, 1, 1, 128) 233472 [&#39;conv5_block30_0_relu[0][0]&#39;] ## ## conv5_block30_1_bn (BatchNormalizati (None, 1, 1, 128) 512 [&#39;conv5_block30_1_conv[0][0]&#39;] ## on) ## ## conv5_block30_1_relu (Activation) (None, 1, 1, 128) 0 [&#39;conv5_block30_1_bn[0][0]&#39;] ## ## conv5_block30_2_conv (Conv2D) (None, 1, 1, 32) 36864 [&#39;conv5_block30_1_relu[0][0]&#39;] ## ## conv5_block30_concat (Concatenate) (None, 1, 1, 1856) 0 [&#39;conv5_block29_concat[0][0]&#39;, ## &#39;conv5_block30_2_conv[0][0]&#39;] ## ## conv5_block31_0_bn (BatchNormalizati (None, 1, 1, 1856) 7424 [&#39;conv5_block30_concat[0][0]&#39;] ## on) ## ## conv5_block31_0_relu (Activation) (None, 1, 1, 1856) 0 [&#39;conv5_block31_0_bn[0][0]&#39;] ## ## conv5_block31_1_conv (Conv2D) (None, 1, 1, 128) 237568 [&#39;conv5_block31_0_relu[0][0]&#39;] ## ## conv5_block31_1_bn (BatchNormalizati (None, 1, 1, 128) 512 [&#39;conv5_block31_1_conv[0][0]&#39;] ## on) ## ## conv5_block31_1_relu (Activation) (None, 1, 1, 128) 0 [&#39;conv5_block31_1_bn[0][0]&#39;] ## ## conv5_block31_2_conv (Conv2D) (None, 1, 1, 32) 36864 [&#39;conv5_block31_1_relu[0][0]&#39;] ## ## conv5_block31_concat (Concatenate) (None, 1, 1, 1888) 0 [&#39;conv5_block30_concat[0][0]&#39;, ## &#39;conv5_block31_2_conv[0][0]&#39;] ## ## conv5_block32_0_bn (BatchNormalizati (None, 1, 1, 1888) 7552 [&#39;conv5_block31_concat[0][0]&#39;] ## on) ## ## conv5_block32_0_relu (Activation) (None, 1, 1, 1888) 0 [&#39;conv5_block32_0_bn[0][0]&#39;] ## ## conv5_block32_1_conv (Conv2D) (None, 1, 1, 128) 241664 [&#39;conv5_block32_0_relu[0][0]&#39;] ## ## conv5_block32_1_bn (BatchNormalizati (None, 1, 1, 128) 512 [&#39;conv5_block32_1_conv[0][0]&#39;] ## on) ## ## conv5_block32_1_relu (Activation) (None, 1, 1, 128) 0 [&#39;conv5_block32_1_bn[0][0]&#39;] ## ## conv5_block32_2_conv (Conv2D) (None, 1, 1, 32) 36864 [&#39;conv5_block32_1_relu[0][0]&#39;] ## ## conv5_block32_concat (Concatenate) (None, 1, 1, 1920) 0 [&#39;conv5_block31_concat[0][0]&#39;, ## &#39;conv5_block32_2_conv[0][0]&#39;] ## ## bn (BatchNormalization) (None, 1, 1, 1920) 7680 [&#39;conv5_block32_concat[0][0]&#39;] ## ## relu (Activation) (None, 1, 1, 1920) 0 [&#39;bn[0][0]&#39;] ## ## dense_153 (Dense) (None, 1, 1, 10) 19210 [&#39;relu[0][0]&#39;] ## ## flatten_1 (Flatten) (None, 10) 0 [&#39;dense_153[0][0]&#39;] ## ## ==================================================================================================================== ## Total params: 18,341,194 ## Trainable params: 0 ## Non-trainable params: 18,341,194 ## ____________________________________________________________________________________________________________________ And then the usual training: library(tens
…
, 2L), padding = &quot;same&quot;) %&gt;% layer_activation_leaky_relu() %&gt;% layer_dropout(0.3) %&gt;% layer_flatten() %&gt;% layer_dense(units = 1L, activation = &quot;sigmoid&quot;) return(discriminator) } discriminator = get_discriminator() discriminator ## Model ## Model: &quot;sequential_72&quot; ## __________________________________________________________________________________________________________________ ## Layer (type) Output Shape Param # ## ================================================================================================================== ## conv2d_47 (Conv2D) (None, 40, 40, 64) 4864 ## ## leaky_re_lu_14 (LeakyReLU) (None, 40, 40, 64) 0 ## ## dropout_106 (Dropout) (None, 40, 40, 64) 0 ## ## conv2d_46 (Conv2D) (None, 20, 20, 128) 204928 ## ## leaky_re_lu_13 (LeakyReLU) (None, 20, 20, 128) 0 ## ## dropout_105 (Dropout) (None, 20, 20, 128) 0 ## ## conv2d_45 (Conv2D) (None, 10, 10, 256) 295168 ## ## leaky_re_lu_12 (LeakyReLU) (None, 10, 10, 256) 0 ## ## dropout_104 (Dropout) (None, 10, 10, 256) 0 ## ## flatten_20 (Flatten) (None, 25600) 0 ## ## dense_233 (Dense) (None, 1) 25601 ## ## ================================================================================================================== ## Total params: 530,561 ## Trainable params: 530,561 ## Non-trainable params: 0 ## __________________________________________________________________________________________________________________ discriminator(generator(tf$random$normal(c(1L, 100L)))) ## tf.Tensor([[0.499960
…
 kernel_size = c(4L, 4L), activation = &quot;sigmoid&quot;, strides = c(1L, 1L), use_bias = FALSE) )) VAE = tf$keras$models$Model(inputs = down_size_model$inputs, outputs = up_size_model(down_size_model$outputs)) summary(VAE) ## Model: &quot;model_5&quot; ## __________________________________________________________________________________________________________________ ## Layer (type) Output Shape Param # ## ================================================================================================================== ## input_4 (InputLayer) [(None, 80, 80, 3)] 0 ## ## conv2d_51 (Conv2D) (None, 76, 76, 32) 2432 ## ## conv2d_52 (Conv2D) (None, 36, 36, 32) 25632 ## ## conv2d_53 (Conv2D) (None, 32, 32, 64) 51264 ## ## conv2d_54 (Conv2D) (None, 14, 14, 64) 102464 ## ## conv2d_55 (Conv2D) (None, 8, 8, 128) 401536 ## ## flatten_22 (Flatten) (None, 8192) 0 ## ## dense_236 (Dense) (None, 65) 532545 ## ## multivariate_normal_tri_l (MultivariateNormalTriL ((None, 10), 0 ## ) (None, 10)) ## ## sequential_76 (Sequential) (None, 80, 80, 3) 1278464 ## ## ================================================================================================================== ## Total params: 2,394,337 ## Trainable params: 2,394,337 ## Non-trainable params: 0 ## __________________________________________________________________________________________________________________ Compile and train model: be = function(true, pred){ return(tf$losses$binary
…
