…
oid\")\n\nmodel = keras_model(\n  inputs = c(input1, input2),\n  outputs = c(modelMain)  # Use the whole modelMain (resp. its output) as output.\n)\n\nsummary(model)\n#> Model: \"model\"\n#> __________________________________________________________________________________________\n#>  Layer (type)                Output Shape        Param #    Connected to                  \n#> ==========================================================================================\n#>  input_1 (InputLayer)        [(None, 50)]        0          []                            \n#>  dropout_3 (Dropout)         (None, 50)          0          ['input_1[0][0]']             \n#>  dense_5 (Dense)             (None, 64)          3264       ['dropout_3[0][0]']           \n#>  embedding (Embedding)       (None, 50, 64)      3200       ['input_1[0][0]']             \n#>  dropout_2 (Dropout)         (None, 64)          0          ['dense_5[0][0]']             \n#>  lstm (LSTM)                 (None, 64)          33024      ['embedding[0][0]']           \n#>  dense_4 (Dense)             (None, 64)          4160       ['dropout_2[0][0]']           \n#>  input_2 (InputLayer)        [(None, 10)]        0          []                            \n#>  dropout_1 (Dropout)         (None, 64)          0          ['lstm[0][0]']                \n#>  dense_3 (Dense)             (None, 64)          4160       ['dense_4[0][0]']             \n#>  dropout (Dropout)           (None, 10)          0          ['input_2[0][0]']             \n#>  dense_1 (Dense)             (None, 2)           130        ['dropout_1[0][0]']           \n#>  dense_2 (Dense)             (None, 5)           325        ['dense_3[0][0]']             \n#>  dense (Dense)               (None, 10)          110        ['dropout[0][0]']             \n#>  concatenate (Concatenate)   (None, 17)          0          ['dense_1[0][0]',             \n#>                                                              'dense_2[0][0]',             \n#>                                                              'dense[0][0]']               \n#>  dropout_5 (Dropout)         (None, 17)          0          ['concatenate[0][0]']         \n#>  dense_8 (Dense)             (None, 64)          1152       ['dropout_5[0][0]']           \n#>  dropout_4 (Dropout)         (None, 64)          0          ['dense_8[0][0]']             \n#>  dense_7 (Dense)             (None, 64)          4160       ['dropout_4[0][0]']           \n#>  dense_6 (Dense)             (None, 2)           130        ['dense_7[0][0]']             \n#> ==========================================================================================\n#> Total params: 53,815\n#> Trainable params: 53,815\n#> Non-trainable params: 0\n#> __________________________________________________________________________________________\n# model %>% plot_model()\nlibrary(torch)\n\nmodel_torch = nn_module(\n  initialize = fun
…
n layer_conv_2d(filters = 16L, kernel_size = c(3L, 3L), activation = \"relu\") %>%\n layer_max_pooling_2d() %>%\n layer_flatten() %>%\n layer_dense(100L, activation = \"relu\") %>%\n layer_dense(10L, activation = \"softmax\")\nsummary(model)\n#> Model: \"sequential_33\"\n#> __________________________________________________________________________________________\n#>  Layer (type)                           Output Shape                        Param #       \n#> ==========================================================================================\n#>  conv2d_1 (Conv2D)                      (None, 27, 27, 16)                  80            \n#>  max_pooling2d_1 (MaxPooling2D)         (None, 13, 13, 16)                  0             \n#>  conv2d (Conv2D)                        (None, 11, 11, 16)                  2320          \n#>  max_pooling2d (MaxPooling2D)           (None, 5, 5, 16)                    0             \n#>  flatten (Flatten)                      (None, 400)                         0             \n#>  dense_111 (Dense)                      (None, 100)                         40100         \n#>  dense_110 (Dense)                      (None, 10)                          1010          \n#> ==========================================================================================\n#> Total params: 43,510\n#> Trainable params: 43,510\n#> Non-trainable params: 0\n#> __________________________________________________________________________________________Prepare/download data:\nlibrary(torch)\nlibrary(torchvision)\ntorch_manual_seed(321L)\nset.seed(123)\n\ntrain_ds = mni
…
me\") %>% \n    layer_activation_leaky_relu() %>% \n    layer_dropout(0.3) %>% \n    layer_flatten() %>% \n    layer_dense(units = 1L, activation = \"sigmoid\")\n  return(discriminator)\n}\n\ndiscriminator = get_discriminator()\ndiscriminator\n#> Model: \"sequential_7\"\n#> __________________________________________________________________________________________\n#>  Layer (type)                           Output Shape                        Param #       \n#> ==========================================================================================\n#>  conv2d_5 (Conv2D)                      (None, 40, 40, 64)                  4864          \n#>  leaky_re_lu_14 (LeakyReLU)             (None, 40, 40, 64)                  0             \n#>  dropout_6 (Dropout)                    (None, 40, 40, 64)                  0             \n#>  conv2d_4 (Conv2D)                      (None, 20, 20, 128)                 204928        \n#>  leaky_re_lu_13 (LeakyReLU)             (None, 20, 20, 128)                 0             \n#>  dropout_5 (Dropout)                    (None, 20, 20, 128)                 0             \n#>  conv2d_3 (Conv2D)                      (None, 10, 10, 256)                 295168        \n#>  leaky_re_lu_12 (LeakyReLU)             (None, 10, 10, 256)                 0             \n#>  dropout_4 (Dropout)                    (None, 10, 10, 256)                 0             \n#>  flatten_1 (Flatten)                    (None, 25600)                       0             \n#>  dense_15 (Dense)                       (None, 1)                           25601         \n#> ==========================================================================================\n#> Total params: 530,561\n#> Trainable params: 530,561\n#> Non-trainable params: 0\n#> __________________________________________________________________________________________\ndiscriminator(generator(tf$random$normal(c(1L, 100L))))\n#> tf.Tensor([[0.4999608]], shape=(1, 1), dtype=float32)\n
…
E = tf$keras$models$Model(inputs = down_size_model$inputs, \n                            outputs = up_size_model(down_size_model$outputs))\nsummary(VAE)\n#> Model: \"model_1\"\n#> __________________________________________________________________________________________\n#>  Layer (type)                           Output Shape                        Param #       \n#> ==========================================================================================\n#>  input_1 (InputLayer)                   [(None, 80, 80, 3)]                 0             \n#>  conv2d_9 (Conv2D)                      (None, 76, 76, 32)                  2432          \n#>  conv2d_10 (Conv2D)                     (None, 36, 36, 32)                  25632         \n#>  conv2d_11 (Conv2D)                     (None, 32, 32, 64)                  51264         \n#>  conv2d_12 (Conv2D)                     (None, 14, 14, 64)                  102464        \n#>  conv2d_13 (Conv2D)                     (None, 8, 8, 128)                   401536        \n#>  flatten_3 (Flatten)                    (None, 8192)                        0             \n#>  dense_18 (Dense)                       (None, 65)                          532545        \n#>  multivariate_normal_tri_l (Multivariat  ((None, 10),                       0             \n#>  eNormalTriL)                            (None, 10))                                      \n#>  sequential_11 (Sequential)             (None, 80, 80, 3)                   1278464       \n#> ==========================================================================================\n#> Total params: 2,394,337\n#> Trainable params: 2,394,337\n#> Non-trainable params: 0\n#> __________________________________________________________________________________________\nbe = function(true, pred){\n  return(tf$losses$binary_crossentropy(true, pred) * 80.0 * 80.0)\n}\n\nVAE$compile(l
…
