…
<!-- } -->\n\n<!-- discriminator = get_discriminator() -->\n\n<!-- discriminator -->\n\n<!-- discriminator(generator(tf$random$normal(c(1L, 100L)))) -->\n\n<!-- ``` -->\n\n<!-- ```{r} -->\n\n<!-- cat(' -->\n\n<!-- Model: \"sequential_13\" -->\n\n<!-- __________________________________________________________________________________________ -->\n\n<!--  Layer (type)                           Output Shape                        Param #        -->\n\n<!-- ========================================================================================== -->\n\n<!--  conv2d_21 (Conv2D)                     (None, 40, 40, 64)                  4864           -->\n\n<!--  leaky_re_lu_14 (LeakyReLU)             (None, 40, 40, 64)                  0              -->\n\n<!--  dropout_6 (Dropout)                    (None, 40, 40, 64)                  0              -->\n\n<!--  conv2d_20 (Conv2D)                     (None, 20, 20, 128)                 204928         -->\n\n<!--  leaky_re_lu_13 (LeakyReLU)             (None, 20, 20, 128)                 0              -->\n\n<!--  dropout_5 (Dropout)                    (None, 20, 20, 128)                 0              -->\n\n<!--  conv2d_19 (Conv2D)                     (None, 10, 10, 256)                 295168         -->\n\n<!--  leaky_re_lu_12 (LeakyReLU)             (None, 10, 10, 256)                 0              -->\n\n<!--  dropout_4 (Dropout)                    (None, 10, 10, 256)                 0              -->\n\n<!--  flatten_3 (Flatten)                    (None, 25600)                       0              -->\n\n<!--  dense_25 (Dense)                       (None, 1)                           25601          -->\n\n<!-- ========================================================================================== -->\n\n<!-- Total params: 530,561 -->\n\n<!-- Trainable params: 530,561 -->\n\n<!-- Non-trainable params: 0 -->\n\n<!-- __________________________________________________________________________________________ -->\n\n<!-- tf.Tensor([[0.49996078]], shape=(1, 1), dtype=float32)     -->\n
…
