…
tten() %>% \n    layer_dense(units = 1L, activation = \"sigmoid\")\n  return(discriminator)\n}\n\ndiscriminator = get_discriminator()\ndiscriminator\ndiscriminator(generator(tf$random$normal(c(1L, 100L))))\n```\n\n\n::: {.cell}\n\n```{.r .cell-code}\ncat('\nModel: \"sequential_13\"\n__________________________________________________________________________________________\n Layer (type)                           Output Shape                        Param #       \n==========================================================================================\n conv2d_21 (Conv2D)                     (None, 40, 40, 64)                  4864          \n leaky_re_lu_14 (LeakyReLU)             (None, 40, 40, 64)                  0             \n dropout_6 (Dropout)                    (None, 40, 40, 64)                  0             \n conv2d_20 (Conv2D)                     (None, 20, 20, 128)                 204928        \n leaky_re_lu_13 (LeakyReLU)             (None, 20, 20, 128)                 0             \n dropout_5 (Dropout)                    (None, 20, 20, 128)                 0             \n conv2d_19 (Conv2D)                     (None, 10, 10, 256)                 295168        \n leaky_re_lu_12 (LeakyReLU)             (None, 10, 10, 256)                 0             \n dropout_4 (Dropout)                    (None, 10, 10, 256)                 0             \n flatten_3 (Flatten)                    (None, 25600)                       0             \n dense_25 (Dense)                       (None, 1)                           25601         \n==========================================================================================\nTotal params: 530,561\nTrainable params: 530,561\nNon-trainable params: 0\n__________________________________________________________________________________________\n\ntf.Tensor([[0.49996078]], shape=(1, 1), dtype=float32)    \n    ')\n```\n\n::: {.cell-output .cell-output-stdout}\n```\n\nModel: \"sequential_13\"\n__________________________________________________________________________________________\n Layer (type)                           Output Shape                        Param #       \n==========================================================================================\n conv2d_21 (Conv2D)                     (None, 40, 40, 64)                  4864          \n leaky_re_lu_14 (LeakyReLU)             (None, 40, 40, 64)                  0             \n dropout_6 (Dropout)                    (None, 40, 40, 64)                  0             \n conv2d_20 (Conv2D)                     (None, 20, 20, 128)                 204928        \n leaky_re_lu_13 (LeakyReLU)             (None, 20, 20, 128)                 0             \n dropout_5 (Dropout)                    (None, 20, 20, 128)                 0             \n conv2d_19 (Conv2D)                     (None, 10, 10, 256)                 295168        \n leaky_re_lu_12 (LeakyReLU)             (None, 10, 10, 256)                 0             \n dropout_4 (Dropout)                    (None, 10, 10, 256)                 0             \n flatten_3 (Flatten)                    (None, 25600)                       0             \n dense_25 (Dense)                       (None, 1)                           25601         \n==========================================================================================\nTotal params: 530,561\nTrainable params: 530,561\nNon-trainable params: 0\n__________________________________________________________________________________________\n\ntf.Tensor([[0.49996078]], shape=(1, 1), dtype=float32)    \n    \n```\n:::\n:::\n\n\nLoss functions:\n\n``` r\nce = tf$keras$los
…
